best_model_torque_noval.pth (torch, 7080 bytes, 5 tensors)

conv.weight f4 [32, 5, 3]
0	0xbdf5e674	-0.12006846
1	0x3e09e9ee	0.13468143
2	0xbe2f782c	-0.17135686
3	0xbe4327e7	-0.1905819
4	0xbe3caa11	-0.1842425
5	0xbaa23bf1	-0.0012377483
6	0xbdb9506d	-0.09048543
7	0xbdb0f0a6	-0.0863965
8	0x3de8c554	0.11365762
9	0xbe6946fb	-0.22780983
10	0x3e2c9254	0.16852695
11	0xbe522ab2	-0.205241
12	0x3dabe5bd	0.083934285
13	0xbe2e9bdf	-0.17051648
14	0xbe521f3b	-0.20519726
15	0x3caadadc	0.020856313
16	0x3e3401b7	0.17578779
17	0xbd186978	-0.037209958
18	0x3e2c38c6	0.16818532
19	0xbe2d27e0	-0.16909742
20	0x3c9be668	0.019030765
21	0x3e2833f2	0.16426066
22	0xbd8df50d	-0.06931505
23	0xbb4af6b5	-0.0030969803
24	0x3ca677bd	0.020320768
25	0x3e0d702e	0.13812324
26	0x3c698942	0.014253916
27	0x3e4d2e0c	0.20037097
28	0xbe0ae255	-0.13562901
29	0x3e41ee62	0.18938592
30	0xbe7481ec	-0.23877686
31	0x3dc733f9	0.0972671
32	0x3e4c302a	0.19940248
33	0x3e5ea588	0.21742833
34	0x3d0249d8	0.031808704
35	0x3e438180	0.19092369
36	0x3d22b7f9	0.03972623
37	0xbca9e200	-0.020737648
38	0x3e402b07	0.18766414
39	0xbd81438f	-0.06311714
40	0xbd971093	-0.07376208
41	0x3de55861	0.111984976
42	0xbe00df25	-0.12585123
43	0x3d1fb43c	0.038990244
44	0xbd9ee9ad	-0.07759414
45	0xbe112704	-0.1417504
46	0x3e2f2e7a	0.17107573
47	0x3e073688	0.13204396
48	0xbcc65161	-0.024208726
49	0x3c936591	0.017992767
50	0x3d63001b	0.055420022
51	0xbe1eed12	-0.15520123
52	0x3d79282d	0.06082933
53	0x3e4aa071	0.19787766
54	0x3e4ae52d	0.19813986
55	0x3d8cdabd	0.068776585
56	0x3e655e6a	0.22399297
57	0xbe726ff1	-0.23675515
58	0xbdae367d	-0.085064866
59	0x3de456bd	0.111493565
60	0xbe7dfd96	-0.24803767
61	0x3d65f5e8	0.056142718
62	0xbdd0a130	-0.10186994
63	0xbe5785da	-0.21047154
64	0x3d7531a1	0.059861783
65	0x3e0b4e60	0.13604116
66	0xbc69a9d2	-0.01426168
67	0xbda96841	-0.08271838
68	0xbe3bb953	-0.18332414
69	0xbdf1de0b	-0.118099295
70	0x3e09fbd4	0.13474971
71	0xbd72c0b5	-0.05926581
72	0xbde48ced	-0.11159692
73	0x3e657707	0.22408687
74	0x3d84a9cc	0.06477699
75	0x3e0daa32	0.13834456
76	0xbe2f9fd7	-0.17150818
77	0xbe7cd761	-0.24691536
78	0xbd0ba633	-0.034094047
79	0x3e1a2641	0.15053655
80	0x3a46a304	0.0007577392
81	0xbdae6062	-0.08514477
82	0xbe4fd0f8	-0.20294559
83	0xbd61f2a9	-0.05516306
84	0x3ddfec8d	0.1093379
85	0xbcb751ed	-0.022377932
86	0xbe25ba56	-0.16184363
87	0xbd700dc8	-0.058606893
88	0x3e5137dc	0.20431465
89	0xbd442f92	-0.04789693
90	0xbd94a2fc	-0.07257649
91	0xbe30314b	-0.17206304
92	0x3dc3c68f	0.095593564
93	0x3d4d46aa	0.05011622
94	0x3d91d94f	0.071215264
95	0xbe66029c	-0.22461933
96	0x3d5f5d3c	0.054532275
97	0x3b08699a	0.0020814897
98	0x3e05f46a	0.13081518
99	0xbda9c096	-0.08288686
100	0xbe7ddaeb	-0.24790542
101	0x3d022443	0.031772863
102	0x3e121b74	0.14268285
103	0xbb48dc8d	-0.0030649037
104	0x3e47d7db	0.19515936
105	0xbe09daba	-0.13462344
106	0x3da712aa	0.08157857
107	0xbd5dad83	-0.05412055
108	0x3c8fae83	0.017539268
109	0x3e29ca25	0.16581018
110	0x3e198434	0.14991838
111	0xbe3a606e	-0.18200848
112	0xbce7c354	-0.028291382
113	0x3c1d23bb	0.009591038
114	0x3dd2b8e4	0.10289171
115	0xbcba5023	-0.02274329
116	0xbe4c46ed	-0.19948931
117	0x3c6b768b	0.014371525
118	0x3dd5320d	0.10409937
119	0xbda579e8	-0.080798924
120	0xbe17b93c	-0.14816755
121	0xbd6f65fd	-0.058446873
122	0x3c18997a	0.009313935
123	0xbcc28b1f	-0.023747979
124	0xbe2e94ca	-0.17048946
125	0x3d2067c7	0.03916147
126	0x3d4f34e7	0.05058756
127	0x3cb7ac07	0.022420896
128	0x3dd643ec	0.10462174
129	0xbe280315	-0.16407426
130	0xbdb39aa8	-0.08769733
131	0xbd82f3ff	-0.06394195
132	0x3ce11bda	0.027479101
133	0xbd6b3732	-0.057425685
134	0x3d841dd6	0.06451003
135	0xbab4def0	-0.0013799351
136	0xbae93f5c	-0.0017795372
137	0xbdc41efd	-0.09576223
138	0xbd560b80	-0.05225706
139	0x3df5f6c1	0.12009955
140	0x3d0204c0	0.03174281
141	0xbe6dd6ea	-0.23226514
142	0x3dfb8c4a	0.122826174
143	0x3e19882c	0.14993352
144	0x3d2ceec8	0.042219907
145	0xbc98d9a9	-0.018658476
146	0xbded4b3e	-0.11586617
147	0x3e333d0f	0.17503761
148	0x3defa675	0.11701671
149	0x3d6b46df	0.057440635
150	0xbe56ba3f	-0.20969485
151	0xbe6bdf99	-0.23034514
152	0x3e30538a	0.17219368
153	0xbe5753e2	-0.21028093
154	0x3e31b6ca	0.17354885
155	0x3e59fbf5	0.2128752
156	0x3e79b804	0.24386603
157	0x3de63334	0.11240235
158	0xbca73059	-0.020408796
159	0x3d054058	0.032532066
160	0xbda9f820	-0.08299279
161	0x3cb2b253	0.021813547
162	0xbdbb9aa6	-0.09160356
163	0xbdf31f98	-0.118712604
164	0x3e05be6c	0.13060921
165	0xbd7da97e	-0.06192922
166	0x3e7cfed9	0.24706592
167	0x3e221a91	0.15830447
168	0x3e09e93e	0.13467881
169	0xbd15a5ba	-0.036535002
170	0xbe321528	-0.17390883
171	0x3cb3303b	0.021873584
172	0x3e330bc3	0.17484955
173	0xbcb6e198	-0.022324368
174	0xbd8c6601	-0.06855393
175	0x3e0d9ed6	0.13830122
176	0xbdca4161	-0.09875751
177	0x3c17380d	0.009229672
178	0xbe561105	-0.2090493
179	0xbe7e0544	-0.24806696
180	0x3e1d5f51	0.15368392
181	0xbe43d480	-0.19124031
182	0xbe02cf9d	-0.1277451
183	0xbcc977b4	-0.024593212
184	0x3ddafc29	0.10692627
185	0xbe087eae	-0.13329574
186	0xbe63bccf	-0.22239994
187	0xbe696d7c	-0.22795671
188	0x3e275203	0.16339879
189	0xbd8f9c0c	-0.070121855
190	0x3daf00f6	0.08545105
191	0xbda85d11	-0.08220876
192	0xbe368aae	-0.1782634
193	0xbb44d5d4	-0.0030034678
194	0xbe00e902	-0.12588885
195	0xbd764166	-0.060120963
196	0x3e587a30	0.21140361
197	0x3e6c9ab7	0.23105894
198	0x3e0461d2	0.1292794
199	0x3e6fdf43	0.23425011
200	0xbe170160	-0.14746618
201	0xbe5e9afa	-0.21738806
202	0xbe1d67cc	-0.15371627
203	0xbe52c18c	-0.20581645
204	0xbd69dd03	-0.05709554
205	0x3def5cca	0.1168762
206	0xbe0183b5	-0.12647898
207	0xbd921afc	-0.07134053
208	0x3e3d96d0	0.18514562
209	0xbe51621d	-0.20447583
210	0xbe707d52	-0.23485306
211	0x3e44b1f5	0.1920851
212	0x3e4ace3d	0.19805236
213	0xbd03260a	-0.0320187
214	0xbe77d53e	-0.24202439
215	0xbb69e6be	-0.0035690512
216	0x3dd54172	0.10412873
217	0x3e7052c8	0.23469079
218	0xbd59f191	-0.05320889
219	0x3e659909	0.2242166
220	0xbd8d05d8	-0.0688588
221	0xbdd7c00a	-0.105346754
222	0x3e31a9e5	0.17349966
223	0xbd8c1ade	-0.06841062
224	0xbdadcccd	-0.08486328
225	0x3e744db8	0.23857772
226	0xbe399b18	-0.1812557
227	0x3de7c143	0.113161586
228	0x3bfe506a	0.007761051
229	0x3e1708af	0.14749406
230	0x3de76331	0.11298216
231	0xbb6f597c	-0.0036521843
232	0xbd371d5b	-0.04470573
233	0xbdbf72cc	-0.09348068
234	0xbd8d1290	-0.06888306
235	0xbdcd261c	-0.100170344
236	0xbe1ef391	-0.155226
237	0xbe17e8b1	-0.14834858
238	0x3e6eede1	0.23332931
239	0x3e2b039b	0.16700594
240	0xbcbb1cfa	-0.022840966
241	0x3e1adf9e	0.15124366
242	0x3dde4f32	0.10854949
243	0x3e586500	0.21132278
244	0x3e2d517a	0.16925612
245	0xbdc8cc0d	-0.098045446
246	0x3a6ea4d8	0.0009103543
247	0x3e4668de	0.19375941
248	0xbcd5f265	-0.02611656
249	0xbcb9e508	-0.022692218
250	0x3d186466	0.037205122
251	0x3e38901e	0.18023726
252	0xbe767c47	-0.24070846
253	0x3e542cb7	0.20720182
254	0xbcc7e053	-0.024398958
255	0x3d844c75	0.064598955

conv.bias f4 [32]
0	0xbdaf23af	-0.08551728
1	0xbdeb40cf	-0.11486971
2	0xbdc4d421	-0.09610773
3	0xbd6169a8	-0.055032402
4	0x3d5e27e4	0.05423726
5	0x3e66e60d	0.22548695
6	0xbddf9915	-0.1091787
7	0x3e4d40b9	0.20044221
8	0xbcaebb00	-0.021329403
9	0xbe55a6fb	-0.20864479
10	0xbe0bafb8	-0.1364125
11	0xbd994c15	-0.074852146
12	0x3e2d62d7	0.16932236
13	0x3da51ed5	0.08062521
14	0xbe45eeaa	-0.19329324
15	0xbd5accc4	-0.053417936
16	0xbe32abed	-0.17448397
17	0x3dbd14aa	0.09232457
18	0x3e3c9433	0.18415909
19	0x3e40d0cb	0.18829648
20	0x3d527679	0.051382516
21	0x3e3f07c5	0.18655308
22	0xbe1ff429	-0.15620483
23	0xbd160dc1	-0.03663421
24	0xbba2d9d0	-0.004969813
25	0xbd8db895	-0.06919972
26	0xb96de8c0	-0.00022688787
27	0xbdc22f9c	-0.09481737
28	0x3e5d98cb	0.21640317
29	0xbe21835f	-0.1577277
30	0x3c8411f7	0.016121848
31	0x3e2a614f	0.16638683

gate.weight f4 [32, 5, 3]
0	0xbcc7b3b8	-0.024377689
1	0x3e3453a1	0.17610027
2	0x3d9fa505	0.07795147
3	0x3e453fda	0.19262639
4	0x3c1bf0de	0.009517876
5	0x3e5451cc	0.20734328
6	0x3e680c7a	0.2266101
7	0x3ddd1d18	0.10796565
8	0x3e1d9f32	0.1539276
9	0x3e4cdc19	0.20005836
10	0xbaa64ea0	-0.0012688227
11	0x3b5368b7	0.003225846
12	0x3de1ddcb	0.11028632
13	0xbdd75523	-0.105142854
14	0x3dded084	0.10879615
15	0xbe3177b8	-0.17330825
16	0xbcd4b572	-0.025965426
17	0xbdbd9fd1	-0.09258998
18	0x3c89a359	0.016801523
19	0xbe639664	-0.22225338
20	0xbe444b44	-0.19169337
21	0xbe3f64f4	-0.18690854
22	0xbe2b300a	-0.16717544
23	0xbd4e8887	-0.05042317
24	0xbe44022c	-0.19141454
25	0x3e1e6824	0.15469414
26	0x3e630bdc	0.22172493
27	0x3e3c9b49	0.18418612
28	0x3e24407d	0.16040225
29	0x3daa8a9f	0.08327221
30	0x3d800e78	0.0625276
31	0x3d05a5b9	0.03262875
32	0xbc2fcf2e	-0.010730548
33	0xbe2b9b5a	-0.1675848
34	0xbe1b1d29	-0.15147842
35	0x3d6a1fcf	0.05715924
36	0xbdc8ebfc	-0.098106354
37	0x3e378f1d	0.17925687
38	0x3e2810cf	0.16412662
39	0x3d678ba1	0.056529645
40	0x3d3f6d68	0.046735197
41	0x3d63cf63	0.0556177
42	0xbe10371a	-0.1408352
43	0xbc5cd8d2	-0.013479428
44	0xbd0c2e2a	-0.034223713
45	0xbe2e4aab	-0.17020671
46	0x3dafb32a	0.08579095
47	0xbda45dd4	-0.08025709
48	0xbe56ac86	-0.2096425
49	0xbe071a40	-0.13193607
50	0xbc7ee89c	-0.015558388
51	0xbc937a63	-0.018002694
52	0x3e7c1c77	0.24620233
53	0xbe2f57c8	-0.1712333
54	0xbdac1e98	-0.08404273
55	0xbe349c31	-0.17637707
56	0xbe183bb8	-0.14866531
57	0xbdd94419	-0.10608692
58	0xbe6f523b	-0.23371212
59	0x3d4e0495	0.05029734
60	0x3e6636e0	0.2248187
61	0x3d5aac7b	0.053387146
62	0xbe5d4f9a	-0.21612397
63	0xbdc57ff9	-0.096435495
64	0x3c3e56bc	0.011617359
65	0x3d361e0c	0.04446225
66	0x3d82c2e3	0.06384828
67	0x3e5c2a8b	0.21500604
68	0x3e3a5dc7	0.18199836
69	0xbddbaedc	-0.10726711
70	0xbe36c25f	-0.17847584
71	0x3e2a2103	0.16614155
72	0xbc37e6ec	-0.01122449
73	0x3da7c5ce	0.08192025
74	0x3dcb40e6	0.09924488
75	0x3d52c7c1	0.05146003
76	0x3d8ff774	0.0702962
77	0xba7ec0c8	-0.00097180577
78	0x3e20daa7	0.15708409
79	0xbe4abc11	-0.19798304
80	0xbdf7ef5b	-0.121062
81	0xbe0c2977	-0.13687693
82	0xbe17cb9e	-0.14823768
83	0xbd3e2150	-0.046418488
84	0xbe20f49c	-0.15718311
85	0xbe4259a0	-0.18979502
86	0xbe48f868	-0.1962601
87	0xbe159bf3	-0.14610271
88	0x3e1a731e	0.15082976
89	0xbdbe2cea	-0.092859104
90	0x3c92c5b8	0.017916545
91	0x3e0416f2	0.12899378
92	0xbd71abdc	-0.05900179
93	0x3e470c2c	0.19438237
94	0x3e655463	0.22395472
95	0x3d98dfa0	0.07464528
96	0x3df328b0	0.11872995
97	0x3e5d82ce	0.2163193
98	0x3ab327a0	0.0013668425
99	0x3d0da929	0.03458515
100	0xbde67922	-0.11253573
101	0x3e75d77e	0.24007985
102	0x3e1165ac	0.14198941
103	0x3d0c18a4	0.034203187
104	0xbd917e5a	-0.07104178
105	0xbdffc460	-0.124886274
106	0xbcf1a4f0	-0.029497594
107	0x3e2f6a56	0.17130408
108	0x3d09daa9	0.033655796
109	0xbdf83766	-0.121199414
110	0xbe728ee7	-0.23687325
111	0x3bb5536d	0.005533627
112	0x3da2ad3c	0.07943198
113	0x3e2ad9ef	0.16684698
114	0xbe591b85	-0.21201904
115	0xbe0a53f2	-0.13508585
116	0x3c206278	0.009789102
117	0x3e101eca	0.14074245
118	0x3d98f85f	0.07469248
119	0x3e0e5627	0.13900052
120	0x3e647f84	0.22314268
121	0x3d9f6768	0.07783395
122	0xbe774b0c	-0.24149722
123	0xbe44085e	-0.19143817
124	0x3d52faa4	0.05150856
125	0xbe15a033	-0.14611892
126	0x3e199cf0	0.15001273
127	0xbdbfe006	-0.09368901
128	0x3e0e8386	0.1391736
129	0xbe29a99e	-0.1656861
130	0x3db280d1	0.08715976
131	0x3dedcfd1	0.116119035
132	0xbded6e0e	-0.11593257
133	0x3de3c97c	0.111224145
134	0xbb21b258	-0.0024672952
135	0xbe5cc6ae	-0.21560165
136	0x3dbae14e	0.09125005
137	0xbaf83fdc	-0.001893993
138	0x3da68b42	0.0813203
139	0xbe564268	-0.2092377
140	0xbe7dd9fb	-0.24790184
141	0x3bc1cc54	0.0059142504
142	0xbe320521	-0.17384769
143	0x3e3da0c3	0.18518357
144	0x3e25501e	0.16143844
145	0xbe1f0563	-0.15529399
146	0x3bf78ed8	0.00755487
147	0xbe49257b	-0.19643204
148	0x3e2b0fe3	0.16705279
149	0xbdd3075e	-0.103041396
150	0xbe3641bc	-0.17798513
151	0x3d3aa4f5	0.04556747
152	0x3d157e22	0.036497243
153	0xbe12b898	-0.1432823
154	0xbe507cf9	-0.20360173
155	0xbd6a6b89	-0.05723146
156	0x3e00a2b5	0.12562068
157	0x3d547044	0.051864877
158	0x3de8edc1	0.11373473
159	0xbe20c11e	-0.15698668
160	0x3d9a9a12	0.07548918
161	0xbe11714c	-0.14203376
162	0xbd80ff73	-0.06298723
163	0x3e75377d	0.23946948
164	0xbddebda1	-0.108760126
165	0xbe1b5a2c	-0.15171117
166	0xbdf63a50	-0.12022841
167	0x3e30e381	0.17274286
168	0x3d97e81d	0.07417319
169	0x3e53d4b6	0.20686612
170	0xbc13db2a	-0.009024421
171	0x3e4f76be	0.2026014
172	0xbd9f30ba	-0.07772966
173	0x3e0e9316	0.13923296
174	0xbdd0b6f0	-0.101911426
175	0x3e60a8ec	0.21939439
176	0x3e448b47	0.19193755
177	0x3db68b0e	0.08913241
178	0xbda61200	-0.08108902
179	0x3b906011	0.0044059833
180	0x3e459b62	0.19297555
181	0xbdcf7c1a	-0.10131092
182	0xbe62c1d3	-0.2214425
183	0x3e1d0e11	0.15337397
184	0x3e7ae142	0.24499992
185	0x3e7d9f7f	0.24767874
186	0x3d4ebbd6	0.050472103
187	0x3e32d5e3	0.17464404
188	0x3db9e51e	0.09076904
189	0x3c2641cc	0.010147523
190	0x3e32d49f	0.17463921
191	0xbcbfeb26	-0.023427557
192	0x3dce83e9	0.100837536
193	0xbdb50c07	-0.08840185
194	0x3da52c3f	0.0806508
195	0xbe060203	-0.13086705
196	0xbdf1e144	-0.11810544
197	0xbe7a8729	-0.24465622
198	0xbe4f257e	-0.20229146
199	0xbd240103	-0.040040027
200	0xbdb2e43c	-0.087349385
201	0x3d519b9d	0.051173795
202	0x3e5872d7	0.21137558
203	0x3ded6428	0.11591369
204	0x3e5eb194	0.21747428
205	0x3d8242e7	0.06360417
206	0xbd860feb	-0.06546005
207	0xbdb83ead	-0.089963295
208	0x3e267cca	0.16258541
209	0xbdb60e5d	-0.08889458
210	0xbe22768e	-0.15865538
211	0x3d06918c	0.032853648
212	0x3e35a6a5	0.17739351
213	0xbdccc15d	-0.099978186
214	0xbb5ec291	-0.0033990482
215	0xbe509ce7	-0.20372353
216	0xbe5db94f	-0.21652721
217	0xbcc00704	-0.023440845
218	0x3e0608f6	0.13089356
219	0x3d74b380	0.059741497
220	0xbcdc48e4	-0.026890226
221	0x3e0fd2d7	0.14045273
222	0x3deb0e8f	0.11477386
223	0x3d8935f3	0.06699743
224	0x3d0087b0	0.0313794
225	0xbe013262	-0.12616876
226	0xbe5268de	-0.20547816
227	0x3d5a917d	0.053361405
228	0xbc26f62a	-0.010190526
229	0xbdd672cb	-0.10471114
230	0x3e0b3ca5	0.13597353
231	0x3d87468c	0.066052526
232	0x3dfe80a1	0.12426878
233	0xbe53543e	-0.20637605
234	0x3d4df7f9	0.050285313
235	0x3dd437d9	0.103622146
236	0x3e0eb60c	0.13936633
237	0xbcf288ce	-0.02960625
238	0x3dab9477	0.08377927
239	0xbe6bbe91	-0.23021914
240	0x3de740ad	0.11291633
241	0x3d59e080	0.053192616
242	0xbd0fa662	-0.035070784
243	0xbe43b091	-0.19110323
244	0x3d817487	0.06321054
245	0xbe55a1cc	-0.20862502
246	0xbe14956e	-0.14510128
247	0x3e01c940	0.12674427
248	0xbe19d31e	-0.15021941
249	0x3dbc9009	0.0920716
250	0xbe0264a4	-0.12733704
251	0xbe30e1e7	-0.17273675
252	0xbdeaa3da	-0.114570335
253	0xbe010a54	-0.12601596
254	0x3e61a231	0.22034527
255	0xbe01555b	-0.12630217

gate.bias f4 [32]
0	0x3e5fba12	0.21848324
1	0xbe425fdc	-0.1898188
2	0xbe53b1c1	-0.20673276
3	0xbdfd96e0	-0.12382293
4	0xbd3ddbda	-0.046352245
5	0xbdca650a	-0.09882553
6	0x3e42c1d5	0.19019254
7	0xbe753833	-0.2394722
8	0x3c00743f	0.007840215
9	0x3d8c03f5	0.06836692
10	0x3db50e91	0.08840669
11	0xbdfd0382	-0.12354185
12	0x3e00b63a	0.12569514
13	0xbe6a70e9	-0.22894634
14	0x3da31f57	0.07964962
15	0xbe77e2f7	-0.24207674
16	0x3e17817b	0.14795487
17	0x3d87514d	0.06607304
18	0x3a039ee0	0.00050209276
19	0xbe560dd3	-0.20903711
20	0xbdc6747a	-0.09690185
21	0xbe650987	-0.22366916
22	0xbdba9a49	-0.09111459
23	0xbe45cb4a	-0.1931583
24	0xbd9478d2	-0.07249607
25	0xbc92b120	-0.017906725
26	0x3b1441f4	0.002262232
27	0xbb07649a	-0.0020659328
28	0x3e4a2801	0.19741823
29	0xbe1f301d	-0.15545698
30	0xbe1d7857	-0.15377937
31	0xbd77173b	-0.06032489

fc.weight f4 [1, 32]
0	0x3d1d5262	0.038408644
1	0x3cbb0a68	0.02283211
2	0xbdb90cf9	-0.090356775
3	0x3dea1cd4	0.1143128
4	0xbdf540e3	-0.11975267
5	0x3c8ba2f7	0.017045481
6	0x3d736d2a	0.05943028
7	0xbe114ffc	-0.14190668
8	0x3e21ae57	0.15789162
9	0xbe13a718	-0.1441921
10	0x3e142ecc	0.14470977
11	0xbdd405b9	-0.10352654
12	0xbdd693a8	-0.10477382
13	0x3de1074e	0.109877214
14	0xbd4550de	-0.048172824
15	0x3e23475c	0.1594519
16	0xbc863b7a	-0.016385783
17	0x3cd3a7de	0.025836881
18	0xbe234010	-0.15942407
19	0xbdf552d4	-0.11978689
20	0x3e235fdb	0.15954535
21	0x3dd3ac97	0.10335653
22	0xbe00ee43	-0.1259089
23	0xbe2523ee	-0.16126987
24	0x3e233adc	0.15940422
25	0x3d2c97a7	0.042136814
26	0x3d314365	0.043277163
27	0xbd628671	-0.055303995
28	0x3e225413	0.15852384
29	0x3d20aa36	0.039224826
30	0x3e20e476	0.15712151
31	0x3dd274f2	0.10276212
