best_model_imu_wval.pth (torch, 35008 bytes, 5 tensors)

conv.weight f4 [128, 6, 5]
000000 4c c2 bd 3c 7a 47 42 bd 30 39 9b 3c 8b fb f8 3d
       0.023163937 -0.047431447 0.018948168 0.12157353
000010 78 84 9b 39 bc 8b 82 3d 9d c3 4c bc e3 f6 28 3c
       0.000296626 0.063743085 -0.01249781 0.010312769
000020 f9 31 a3 ba 59 b2 84 bd 8b 74 09 bd 31 c9 85 3d
       -0.0012450806 -0.064793296 -0.03355841 0.06532515
000030 ad 44 f4 bd 6a 30 8c ba 62 b7 a9 bd 16 b1 7a 3d
       -0.11927161 -0.0010695581 -0.082869306 0.06120404
000040 c2 5a c9 bc 12 63 96 3d fe e9 e0 3a c9 2c dc bd
       -0.02457941 0.07343115 0.0017159579 -0.107507296
000050 14 bc 25 3d dc 05 e3 3c 6e d1 e7 bc 6b 23 f4 bb
       0.04046257 0.027712755 -0.028298106 -0.007450511
000060 f6 61 02 3d 17 2f 5e 3c 36 6c 70 3b 5a f9 53 bb
       0.031831704 0.013561032 0.0036685592 -0.003234467
000070 0b dc 00 3d 63 4d 70 bd cd de bf ba 0a 9b ee bd
       0.03145985 -0.05866755 -0.0014638543 -0.11650665
000080 c3 04 96 3b 14 fc 1b bc b4 dd c5 bd c8 09 3d bd
       0.0045782044 -0.009520549 -0.09661427 -0.046151906
000090 e4 b4 a1 bc c9 38 17 bb 2c 6a 82 3d 7e 9c 01 be
       -0.019739576 -0.0023074618 0.06367907 -0.12657353
0000a0 1b 51 49 3d 84 d4 23 3c e3 70 20 bd 32 d3 a0 bd
       0.049149614 0.009999398 -0.039170157 -0.07852782
0000b0 ec 16 10 bc e4 3e 12 3d 2e d5 66 3d 88 7c 91 3d
       -0.0087945275 0.03570451 0.056355648 0.071038306
0000c0 0e 7b f2 bd 88 34 1e 3c 40 5f 00 3d 27 15 96 bd
       -0.11839877 0.009656079 0.031340837 -0.07328253
0000d0 8c 9e 82 3d d8 20 89 3d 66 4b f6 bd 06 1a 62 bc
       0.06377897 0.066957176 -0.120261 -0.01380015
0000e0 5d b5 82 3d e8 54 1b bd ff 4e 96 bd cd 26 9c 3d
       0.063822486 -0.03792277 -0.07339286 0.07624588
0000f0 64 d3 80 bd 34 2d 02 be e8 fe d1 39 89 85 d7 3d
       -0.062903196 -0.12712556 0.00040053506 0.10523517
000100 be 62 22 bc 3d 7a b1 bc 65 c0 05 bc 73 87 5e bd
       -0.009911237 -0.021664733 -0.008163546 -0.054328393
000110 2b 8a 9b 3d cd 7f af 3c 26 a6 5c bd f6 70 ab 3b
       0.07594713 0.021423245 -0.05386939 0.005231972
000120 d2 d5 0e bd 30 1b 92 3c 9f 1a dd 3d 89 d2 09 3d
       -0.034871884 0.01783523 0.10796093 0.033648048
000130 a4 39 ab ba d6 76 98 bc a0 7c d7 3d bb b6 00 3e
       -0.0013063443 -0.018611353 0.10521817 0.12569706
000140 2c 22 90 bd b6 a7 52 3d a8 db 82 3d aa 30 31 3d
       -0.07037768 0.051429473 0.06389552 0.0432593
000150 35 5a 04 be 91 3d a5 bc 34 bc a7 3d 1f f6 a3 bd
       -0.12925036 -0.020170959 0.08190194 -0.08005928
000160 fa e2 28 3c 8b 09 ad bd 45 38 dd 3d 60 aa d8 bd
       0.010308022 -0.08449086 0.10801748 -0.105793715
000170 19 fe b4 3d aa 94 e9 3b 14 f6 22 bd 3b d9 c3 bd
       0.08837528 0.007128318 -0.03978546 -0.09562918
000180 c2 d7 94 bc a3 92 f0 3d 61 79 2e bd 75 95 26 bd
       -0.018169288 0.11746719 -0.042596225 -0.040669877
000190 b4 df ec bb 26 b3 d2 bd 7e a0 b5 bd 98 e6 24 bd
       -0.007228816 -0.10288076 -0.08868502 -0.040258974
0001a0 dc d0 05 3e a1 ba fb bd 3c 5c a3 bd 32 fe 34 bd
       0.13067955 -0.12291456 -0.07976577 -0.044187732
0001b0 1e 3a b4 3d 23 4f 4f bb d4 75 06 3e 9e b3 e9 3d
       0.088001475 -0.0031632863 0.13130885 0.114112124
0001c0 4b 0f f9 bd b4 2d 05 3e c6 b3 dc 3d fb 54 88 ba
       -0.1216112 0.13005716 0.107764766 -0.0010401303
0001d0 97 47 04 3e 95 28 c4 bd d0 7d e4 3c fc 36 46 3d
       0.12917934 -0.09578053 0.027892023 0.04839228
0001e0 c7 ae d2 ba 2c 52 93 3b 82 8a 0e bd 6e 9a c8 3c
       -0.0016073816 0.0044958796 -0.03480006 0.0244877
0001f0 62 e7 4e 3b db 04 b6 bd c0 8e cd ba 74 c6 11 bd
       0.003157102 -0.08887645 -0.0015682802 -0.03558965
000200 73 20 8d 3d 7c 61 e5 3d 0a d0 89 3c 5a 8b b1 bd
       0.06890955 0.11200234 0.016822834 -0.08669157
000210 7f 52 84 bd 88 e1 07 be 7f 09 80 bd 44 87 3e 3d
       -0.064610474 -0.13269627 -0.06251811 0.046515718
000220 03 7a 99 bd 75 da a3 bd bf 40 e5 bd bf 96 16 bc
       -0.07493975 -0.08000652 -0.1119399 -0.009191214
000230 ef 31 6e bd b8 69 fd bd dd 53 2d bb 2d dd 0f bd
       -0.05815309 -0.1237368 -0.0026447691 -0.03512304
000240 8e 76 d5 3c 4d d8 a1 bd fd a4 b9 bd 6a 46 24 3d
       0.026057508 -0.07902584 -0.09064672 0.040106215
000250 16 24 a8 bd 57 db d3 3d 83 15 77 bd 01 c7 9c 3d
       -0.08210008 0.1034457 -0.06032325 0.076551445
000260 34 1c 12 3c 8f 7c ac 3d 93 51 95 bd df 90 8a 3c
       0.008917857 0.08422195 -0.0729095 0.016914783
000270 af a5 c5 bb bc dd 49 bc 6c 96 c0 3d ea 0b 07 b9
       -0.006031714 -0.012320932 0.09403691 -0.00012879042
000280 70 eb 93 3b 81 51 b3 bb b2 9b 9d 3d 94 31 f9 bc
       0.0045141503 -0.0054723625 0.07695712 -0.030419149
000290 a2 0f 7e 3d a9 00 c6 3d 8e eb 11 bb 34 fa bb 3d
       0.062026627 0.09668095 -0.0022265646 0.09178582
0002a0 ee 32 da bc c7 e5 be 3d b9 16 5d bd 9c fd c8 3d
       -0.026635613 0.0932117 -0.05397675 0.09813997
0002b0 1e 75 83 3d b8 51 84 b9 43 af 05 3e 54 0f d3 3a
       0.06418823 -0.00025237887 0.13055138 0.0016102591
0002c0 2c 03 ba 3d ca 5f d6 bd 82 62 61 bb 05 58 46 bb
       0.09082636 -0.10467489 -0.003439099 -0.0030264866
0002d0 96 00 f7 bd ac ef e1 3d 76 ac 10 3c 29 ca 6d 3d
       -0.12060659 0.11032042 0.00883018 0.058054123
0002e0 22 9c b6 3d ed 9c ad bd 60 37 b3 3d c6 41 e9 bb
       0.08916499 -0.08477197 0.08750796 -0.0071184365
0002f0 e2 25 46 bd dc 48 6d bd b6 df 50 3c 06 bf 85 ba
       -0.04837597 -0.057930812 0.012748649 -0.0010204024
000300 4f 5f e9 3d 13 89 01 3e fb 52 06 be b5 13 4e 3b
       0.11395132 0.12649946 -0.13117592 0.0031444852
000310 4c be 06 3d 39 42 d6 bb ca 2d d1 bc bd 97 d2 bd
       0.032896325 -0.006538656 -0.02553453 -0.10282848
000320 8c f2 c8 bc 52 11 b8 bd a8 df 79 3d a6 3b 18 3d
       -0.024529718 -0.089876786 0.06100431 0.03716626
000330 62 1f 5b bb 49 6a 02 3e 26 28 fd 3d 3e ac 56 bd
       -0.0033435454 0.12735857 0.12361173 -0.052410357
000340 52 cf c7 bd fd 10 df bd 7a cc d0 3d 0a 03 91 bd
       -0.0975634 -0.10891912 0.10195251 -0.07080658
000350 f0 e1 04 be 31 13 ed bd a8 67 54 ba 4f 01 c4 bc
       -0.12976813 -0.11575926 -0.0008102604 -0.023926405
000360 42 8d 24 3d 51 77 21 3d a5 78 1d 3b b4 8c a2 bd
       0.040173776 0.03942043 0.0024028209 -0.07936993
000370 00 e4 e1 3d 70 c8 0a 3d 26 d3 14 bc e2 b0 23 bc
       0.11029816 0.03388256 -0.009083545 -0.009990903
000380 24 b3 74 3a 5b 4a c9 bc 21 8b a7 3b 97 76 dc 3a
       0.00093345554 -0.024571588 0.005113021 0.001682001
000390 88 db f0 bd 50 89 c0 bd 1a e4 e5 bd 2a 12 02 3e
       -0.11760622 -0.0940119 -0.112251475 0.12702242
0003a0 52 cf c5 3d ae b4 a4 bb 47 4e f4 bd a1 ba b8 bb
       0.09658684 -0.0050264215 -0.11928993 -0.0056374823
0003b0 64 2d 08 be b7 f3 f2 3c b5 a5 81 3d 0f 26 ff 3d
       -0.13298565 0.029657228 0.06330434 0.12458431
0003c0 23 b5 a5 bd 52 8a 63 bd 11 12 27 3c 62 3d 9a 3d
       -0.0809119 -0.055551834 0.010197178 0.07531239
0003d0 e7 49 90 3d 58 3c ff 3d 4d ff 25 3c 20 07 63 3d
       0.07045346 0.124626815 0.010131669 0.055426717
0003e0 47 6c 7a 3d 97 5a 97 3c 84 f1 25 bc 03 97 e2 bd
       0.061138418 0.018475814 -0.010128383 -0.110639594
0003f0 4a b8 87 bd 35 bc 26 bc 5a fe 08 3c 4a 54 44 3d
       -0.06626947 -0.010176708 0.008361423 0.047931947

conv.bias f4 [128]
000000 28 a0 21 bd 3a da cb 3d d1 49 55 bd e5 8f 18 bd
       -0.039459378 0.09953733 -0.05207235 -0.037246604
000010 3e 7b 70 bc 7b 2f 72 bb b0 14 07 be 62 a7 0b 3d
       -0.014677821 -0.003695457 -0.13191485 0.034095176
000020 0e 5f 40 bd d1 59 7d bd 3b 72 3c bc 0c 13 25 3c
       -0.04696565 -0.061853234 -0.011501844 0.010075342
000030 51 2e e5 bd 8c c4 48 bd a1 b5 24 3c e6 03 be bb
       -0.11190475 -0.049015567 0.010053069 -0.0057988046
000040 8d b5 e0 bd d2 38 9e 3c e0 e8 9c bd ce e1 a0 3d
       -0.10972128 0.019314203 -0.07661605 0.07855569
000050 83 5c a0 bd a8 54 4c 3d 8c 37 99 3c 81 14 20 bd
       -0.07830145 0.049885422 0.018703245 -0.039082054
000060 98 a5 bf 3d 82 4b 31 bd 00 80 da bd c2 e2 34 bb
       0.093577564 -0.0432849 -0.10668945 -0.0027600979
000070 1e 3b af bb b7 e7 f4 3b ec 43 32 3c 88 5d b5 bd
       -0.0053476235 0.0074739116 0.010880452 -0.0885573
000080 93 0f 67 bb 72 2a d5 bd 42 ab 6e bd 6d 1b f9 bd
       -0.0035257086 -0.104084864 -0.058268793 -0.12163434
000090 82 af 97 3c 47 52 80 bd 52 ec 8a bd 61 29 de 3d
       0.018516306 -0.06265693 -0.06783356 0.10847736
0000a0 f6 1d 06 be 41 d7 4d 3d a1 67 58 bd 39 aa c0 3d
       -0.13097367 0.05025411 -0.052833203 0.094074674
0000b0 0c 2d 03 be 00 4f a3 b8 6b 34 60 bd 00 40 06 34
       -0.12810153 -7.7871606e-05 -0.05473749 1.2503006e-07
0000c0 37 90 e6 bd f3 23 f0 3d 71 bf 59 bd 1d 71 ef bd
       -0.112579755 0.11725607 -0.05316109 -0.116914965
0000d0 05 70 05 be 3f 9d 80 3c e7 aa f4 3d e8 c2 0f 3c
       -0.13031013 0.01569998 0.119466595 0.008774497
0000e0 e0 cc 14 3c e5 4a df bd a2 21 44 bc 19 38 22 3d
       0.009082049 -0.10902957 -0.011970909 0.03960428
0000f0 bd a3 2c 3b c8 43 ac bd 1a b5 87 bd cc 02 1c bb
       0.0026342713 -0.08411366 -0.06626339 -0.0023805378
000100 50 5e 3f bd c2 ac d7 bb fb fa ab bd 91 46 e3 3d
       -0.046720803 -0.0065818736 -0.0839748 0.11097444
000110 8a c2 89 bd 66 09 44 bc f0 36 93 bd 15 a8 ad bd
       -0.067265585 -0.011965131 -0.07188213 -0.08479325
000120 bd 62 2e bc 64 9a fc 3d 0d e6 97 bd ab 34 94 bd
       -0.010643658 0.12334135 -0.074169256 -0.07236608
000130 81 a3 2b bd 6e 7b 5f bc df 08 2d bd 68 68 7a 3d
       -0.041903976 -0.013640268 -0.04224479 0.061134726
000140 0e 6f 50 bb e9 47 26 bd 1c e2 0a bd d6 f8 c4 bd
       -0.0031804475 -0.040595923 -0.03390704 -0.09617774
000150 1a 5b b2 3b f7 cb c3 bd fc 11 96 3c 12 d4 ab 3d
       0.005442989 -0.095603876 0.018319122 0.083900586
000160 7a 8e 98 bc 65 fd c6 bd fa 5c 28 3c f6 aa ed bd
       -0.018622626 -0.097163 0.010276074 -0.11604874
000170 dc 2f 9a 3c 54 4a f0 bb 28 d1 c6 bd c2 3c 80 3c
       0.01882165 -0.0073330794 -0.09707862 0.015653972
000180 db ea 03 3e 0d 84 bd 3c 23 ea d5 3c 3b 26 83 3c
       0.12882559 0.023134256 0.026112622 0.01600944
000190 0a 3a c3 ba f4 9e a1 3d 3f 6f e1 bd 9c 6a ea bd
       -0.0014894616 0.07891646 -0.11007547 -0.114461154
0001a0 0d 2d a1 3d c7 0b 01 be ae b7 e7 3d 06 cc c7 bc
       0.07869921 -0.12602149 0.11314331 -0.024389278
0001b0 a1 1a 35 3c 1c 42 7b bb e6 35 ee 3d 96 42 11 bc
       0.011053712 -0.0038338965 0.11631374 -0.008865973
0001c0 32 82 1a 3c 4c 2e 17 3d a9 53 21 bd c9 9b ef bb
       0.009430455 0.036909387 -0.039386425 -0.007312272
0001d0 d8 cd d9 bd 5e 55 ea 3d d5 09 6d bb 92 72 07 be
       -0.10634965 0.11442064 -0.003616919 -0.13227299
0001e0 4c ed 0e bd 98 d9 19 3d fc ab 81 3b 5f c7 70 bd
       -0.034894273 0.03756103 0.0039572697 -0.058783885
0001f0 d4 b0 9f bd b6 e1 4e 3b 9f ee eb 3d 89 fa d2 bd
       -0.07797399 0.003156764 0.11520123 -0.10301692

gate.weight f4 [128, 6, 5]
000000 50 54 82 bb 62 df d9 3d 88 6e d0 bd 90 8d d2 3d
       -0.003977336 0.1063831 -0.10177332 0.10280907
000010 f2 ec 04 3c 2a 1c b6 3a 62 0d 1b 3c ea a0 c5 3d
       0.008113133 0.0013893892 0.00946364 0.096498325
000020 ad 77 12 3b b1 ad 39 3d ec ea 4e 3d 3f fe c7 ba
       0.0022349164 0.04533166 0.050517008 -0.0015258266
000030 c9 fe c8 3c 13 95 7b 3b 1d 0f b0 bd 98 78 4c bd
       0.024535554 0.0038388416 -0.08596633 -0.049919695
000040 39 86 ad 3c e3 d0 d6 3d bb 3e db bc ea 88 8e 3d
       0.021182166 0.10489061 -0.02676331 0.06959708
000050 e8 88 01 3e ee 89 99 3d 4b ed 96 3d 20 a1 f1 3b
       0.12649882 0.07497011 0.07369479 0.007373944
000060 b6 0e df 3c 8c 1a 4f 3d 7c 9b 89 bd 0e 48 a1 3b
       0.027228694 0.050562426 -0.067191094 0.0049219197
000070 98 c5 e5 bc 86 91 2c 3b 5c d7 d1 bd 06 9a a5 3b
       -0.028048322 0.0026331856 -0.10246155 0.0050537614
000080 25 c0 04 3e 26 3a e4 3d fe 08 01 3a 56 5e 0a 3b
       0.12963922 0.111439034 0.00049222994 0.0021113358
000090 b5 23 50 bb 86 76 93 3d 80 39 05 be 24 fa dc bd
       -0.0031759564 0.07200341 -0.13010216 -0.10789898
0000a0 de b7 23 3d e4 a5 06 be 69 0c 8c 3d fc 79 d7 3c
       0.03997027 -0.1314922 0.068383045 0.026303284
0000b0 55 87 6d bd 31 7b 31 3d e9 2d ac bc 0d bd d7 bd
       -0.05799039 0.043330375 -0.021017985 -0.105341054
0000c0 99 1b 22 3c 99 e4 48 3d e4 d3 e0 3a d4 46 90 3b
       0.009894275 0.049046133 0.0017152992 0.0044029746
0000d0 6a 01 e4 3d f6 ed 1f bc 01 25 91 3d f4 e7 2d bd
       0.11133082 -0.009761324 0.07087136 -0.042457536
0000e0 3b 92 e5 3d b7 77 f1 bd 6a f6 a5 bd 5f f8 46 bd
       0.11209532 -0.11790412 -0.081036404 -0.04857671
0000f0 48 00 01 be 8c 9f 0a bd f1 ba 59 3d 53 51 74 3d
       -0.12597764 -0.033843562 0.053156797 0.05964787
000100 5e 25 8c bd cc 2c 1d bc 4a 3d 07 3e c9 0c 80 bd
       -0.06843065 -0.0095932 0.13206974 -0.062524386
000110 3f e9 7b 3c f0 71 2d 3c bf 7a da 3d af 7b 1e 3c
       0.015375434 0.010586247 0.10667943 0.009673043
000120 2d 5e 3d bd 24 85 f5 bd d2 6c e8 bb 0c fd e0 bb
       -0.04623239 -0.11988285 -0.0070930505 -0.006866103
000130 22 e8 11 bd 3c d7 14 3a ba d4 9b 3d 64 68 ed 3c
       -0.03562177 0.00056778244 0.07608934 0.028980441
000140 46 a1 4a bc bd 41 73 3c ba 47 a4 bd bb d8 f9 bd
       -0.012367552 0.014847216 -0.08021493 -0.12199541
000150 9a 71 f2 bd c8 54 a2 ba 48 64 cb 3b 2e 65 f2 bc
       -0.11838074 -0.0012384886 0.006207023 -0.029589262
000160 ee 4b 00 3e 52 08 57 bc 07 27 21 bd 86 94 5f bd
       0.12528965 -0.013124542 -0.03934386 -0.054585002
000170 fe aa 8d 3d bf 9c d7 bc 59 8f a3 bc ab db 32 bd
       0.0691738 -0.02631986 -0.019965814 -0.043666523
000180 89 07 6b bd 04 59 0f bc e9 49 89 bd bf c0 ca bd
       -0.057380233 -0.00874925 -0.0670355 -0.09900045
000190 a8 c4 de bd 50 94 51 bd ff 78 5c bd 50 7f 8b bd
       -0.10877353 -0.051166832 -0.05382633 -0.06811392
0001a0 7f 22 94 bd 03 96 ca 3d 79 d4 33 3c b0 55 23 bc
       -0.07233142 0.09891894 0.01097595 -0.00996916
0001b0 26 6a ab 3b 5c 2c 77 bd ce 7a f5 3d f0 02 d1 3c
       0.0052311597 -0.06034504 0.11986314 0.025514096
0001c0 40 e0 53 b9 43 e6 dd 3d bf 2c 5c 3d 82 c7 89 bb
       -0.00020206068 0.108349346 0.05375361 -0.0042046914
0001d0 d8 17 3f 3c 13 1e ec 3c 95 36 cb bd 54 93 02 3e
       0.0116634 0.028822934 -0.0992252 0.12751514
0001e0 9e ca fb 3d 21 1f 96 bc 88 cc 5f ba d4 76 e5 bb
       0.122945055 -0.01832539 -0.00085372524 -0.007002691
0001f0 b0 0a 93 bc 34 b6 99 bd 4f 47 69 bd a1 aa 39 bd
       -0.017949432 -0.075054556 -0.05695277 -0.04532874
000200 59 05 df bd 30 74 66 bd 81 87 aa 3c 0f 92 5f 3b
       -0.10889692 -0.05626315 0.020816566 0.0034114157
000210 ec 44 1a 3c 51 93 c9 3d 27 35 a0 3d e5 8e 8d 3d
       0.009415846 0.098425515 0.07822638 0.069120206
000220 6e 21 f8 bd ce 90 61 bd 70 12 dd 3b 05 7d d8 bb
       -0.12115751 -0.055069737 0.0067465827 -0.0066067004
000230 c8 95 bc b9 e8 d7 11 3a 74 33 97 bb cc e7 b0 3c
       -0.0003596975 0.00055634836 -0.004614288 0.021594904
000240 bf 3c 8d ba b9 de 4c 3b de 0f 3c bd 0e 91 ab 3c
       -0.001077555 0.0031260683 -0.04591357 0.02094319
000250 85 c6 f1 3d d7 c9 ab bc 5d 86 4a 3d b2 c2 fc bb
       0.11805443 -0.020970268 0.049444545 -0.007713639
000260 d0 00 56 39 1d 6c bf bd 3e ea f3 3a af a0 cd 3d
       0.00020408933 -0.09346793 0.0018609238 0.100404136
000270 c5 88 01 bb f6 b3 71 3d 6c da 2d bc 55 41 5e 3b
       -0.001976536 0.059009515 -0.010611158 0.0033913453
000280 2b be 1d 3d cf 5b cf bc 5f 51 c7 3d 84 78 b6 3c
       0.038511436 -0.025312332 0.09732317 0.022274263
000290 c7 e7 c3 bd 24 7e c0 bd 2e 3b fc 3b 01 d0 06 bc
       -0.095656924 -0.093990594 0.0076974845 -0.008228303
0002a0 87 b8 0d 3d 6c 92 f2 ba 20 0b fa 3b 54 88 ab bd
       0.034599807 -0.0018506772 0.0076307207 -0.08375612
0002b0 e2 97 6a bb ba 9f 1f bb 99 16 82 3d dc d1 03 3e
       -0.0035796096 -0.002435668 0.063519664 0.12873024
0002c0 cf cf 16 bd d2 5d fb 3d f2 cc 37 bb ef 04 97 3c
       -0.036819275 0.12273754 -0.002804574 0.01843497
0002d0 8b 55 4c 3d 40 8b 36 3d af 9b 9c 3d cb 58 68 3b
       0.049886268 0.044566393 0.07646882 0.0035453315
0002e0 00 ba fb bb 36 5a 9a 3d a9 1f 35 bd 40 6d 7d bd
       -0.007682085 0.075367376 -0.044219647 -0.061871767
0002f0 64 28 a8 bb bc f2 c5 3c 58 8b 03 bd 30 c5 d8 3d
       -0.005131768 0.024163596 -0.03211531 0.105844855
000300 19 a5 e4 3d b0 43 56 bd f2 07 ad 3c 65 fb 70 3d
       0.111643024 -0.052310646 0.021121953 0.0588335
000310 49 cc 21 3c 55 d5 96 bd 5e 6f 1d bc f0 58 0b 3d
       0.0098753655 -0.073649086 -0.009609072 0.034020364
000320 e3 0e 7c 3d 01 83 fa ba e6 a4 45 3b cf 0b b0 bd
       0.061537635 -0.0019112529 0.0030158102 -0.08596002
000330 93 83 35 bd 1d ca c4 3c b4 c0 97 3d 5e 66 a8 3b
       -0.044314932 0.024022156 0.07409802 0.0051391562
000340 c1 ec 23 bc c4 a1 09 bb 04 c5 e7 b9 d9 86 d8 3d
       -0.010005177 -0.002100096 -0.00044206541 0.10572595
000350 a4 f3 69 bb ac 6f f1 bd 02 ea b7 3c fd 01 2f bd
       -0.00356982 -0.11788878 0.02245045 -0.042726506
000360 fc ec 48 bd d4 c5 d4 bd a0 4c fc 3c fa aa 87 3b
       -0.04905413 -0.10389295 0.030798256 0.004140255
000370 63 ae 89 bc 37 50 7e bd 8a 10 9b bd be fe d1 3c
       -0.016806787 -0.062088218 -0.07571514 0.025634166
000380 bb a6 e7 3c 6e a7 25 3c 70 c5 8e bc 78 4e 20 bc
       0.028277745 0.010110719 -0.01742813 -0.009784333
000390 8e 1f 57 3d 60 87 18 3c 17 3a a8 bb 5d 80 a1 bc
       0.052520327 0.00930962 -0.005133878 -0.019714529
0003a0 85 a0 dc bc 6c 81 5e bd 17 89 82 bd 38 6b 8f bd
       -0.02693201 -0.054322645 -0.06373804 -0.07002872
0003b0 78 96 99 39 16 71 c9 bb 34 24 e0 3c 4c 71 4a 3b
       0.00029294542 -0.006147514 0.027361013 0.0030890284
0003c0 8a a3 53 bb c3 f4 71 bb 17 a0 6c bd 94 01 53 bd
       -0.0032293522 -0.003691957 -0.05776986 -0.051515177
0003d0 e6 33 2a bd e6 d9 f1 3b 66 17 c6 ba 23 a0 e8 3d
       -0.0415534 0.007380712 -0.0015113174 0.11358669
0003e0 53 ea c1 bd 9b 4e 04 3c 58 b1 2f bd 69 9d 87 bd
       -0.09468522 0.008075382 -0.042893738 -0.066218205
0003f0 90 8e 9c bd cd 13 ec bd 6e 99 30 3b 42 a7 e9 3c
       -0.07644379 -0.11527214 0.002694692 0.028522138

gate.bias f4 [128]
000000 4e ad d4 3c 40 d9 c6 3c 7e 93 8c bd ac 8d aa 3a
       0.025961544 0.024273515 -0.068640694 0.0013012192
000010 cf 94 4b 3b c4 ac ae 3d 33 d2 5d bd 10 b8 88 3b
       0.0031064039 0.08529046 -0.05415554 0.0041723326
000020 37 53 86 bd 7d ff 31 3d 9e 83 82 bc 9d f6 8a 3d
       -0.06558841 0.043456543 -0.0159319 0.06785319
000030 58 d8 c0 bd 07 cf 46 3d 75 88 9c bd 5a db 60 bd
       -0.09416264 0.04853728 -0.076432146 -0.05489669
000040 a1 06 6a 3d a4 4b 4b bd 0c 1f 78 3d 89 0a 27 bc
       0.057135228 -0.049632683 0.060576484 -0.010195383
000050 00 55 bd bd 2f e0 bf ba 02 3c 29 3c 87 66 94 3c
       -0.09244728 -0.0014638955 0.010329248 0.018115295
000060 a3 22 cc 3b 86 a7 61 3c 9d 36 b3 bd 83 82 cd 3d
       0.006229715 0.013772851 -0.08750651 0.10034659
000070 de 08 9d bd 3e e8 cb bd 2e 7f d3 bd 7d 53 db bc
       -0.07667707 -0.09956406 -0.10326992 -0.026773209
000080 83 a9 07 be b7 05 6c 3d 70 52 23 3d 2e f3 ff 3c
       -0.13248257 0.057622638 0.03987354 0.031243887
000090 8b 81 ec 3d 1f 28 80 3b e6 2d fe bd 8e 82 b6 3d
       0.11548146 0.003911033 -0.12411098 0.0891162
0000a0 75 6a f8 3c 1a c1 27 3c e4 3f 03 3c 18 3c 5b 3d
       0.0303242 0.01023891 0.008010838 0.053524107
0000b0 0a 43 93 3d e7 12 24 bc b0 b1 97 bd e6 2e 9b 3d
       0.07190521 -0.010014272 -0.07406938 0.075773045
0000c0 19 e8 87 ba 4d bc f3 3c fc c2 ee 3d 7e 3b c7 bd
       -0.0010368853 0.029752875 0.11658284 -0.09728144
0000d0 3f de cf 3b f8 57 b4 3d 70 ed de 3c a4 aa c5 3c
       0.0063436325 0.08805841 0.027212828 0.02412922
0000e0 79 65 dd 3a 99 18 f6 bd f4 84 12 bc 98 9a c4 3d
       0.0016891203 -0.120164104 -0.008942831 0.09599799
0000f0 8b fd 81 3d 03 fe 15 3d bd 3d a4 3a 85 5b 3b bd
       0.063471876 0.036619198 0.0012530606 -0.045741577
000100 f1 43 41 3d fb 73 22 3c b7 13 8a bc e6 e2 a0 bc
       0.047183935 0.009915347 -0.016855104 -0.019639444
000110 a9 54 db bd 46 2e 0f bb d2 f0 ed 3d 76 23 01 bd
       -0.10709507 -0.002184765 0.116181985 -0.03152796
000120 1b c5 df bd ae 37 8a 3d 4a d6 4f bb 54 91 05 bc
       -0.10926267 0.06748901 -0.003171342 -0.008152325
000130 b4 7b 81 b9 65 e3 00 3e 59 24 db bc 33 14 8d bd
       -0.00024696963 0.12586744 -0.02675073 -0.06888618
000140 e6 d2 1a bc 9a a6 b9 3d b0 ac b1 bc e3 41 e0 3d
       -0.009449696 0.0906498 -0.02168879 0.10950067
000150 ce 60 24 3c 20 39 86 3d 80 39 a7 3d 7a 5c ee 3d
       0.010032846 0.065538645 0.08165264 0.11638732
000160 ab ba 6a 3b 74 17 30 3d 59 41 0a 3d 52 9d cf 3c
       0.003581683 0.042991117 0.033753727 0.02534357
000170 30 8e 1b 3b de 12 11 3c a0 9d fd bd 0e fe e3 3c
       0.0023735873 0.008854596 -0.1238358 0.027831104
000180 0d db 00 be 8c 28 c3 3b 20 48 50 bc 3e 9c d7 bd
       -0.12583561 0.0059557613 -0.012712508 -0.10527848
000190 de 0c d7 bd 5e 76 c7 bb 19 73 52 bc 87 72 c2 3d
       -0.10500501 -0.0060871085 -0.012844824 0.094945006
0001a0 94 8d 25 bc 3a 7d 80 bc bc 45 84 3d 24 61 ee 3d
       -0.010104556 -0.015684713 0.06458613 0.11639622
0001b0 71 00 13 bd 4a 2f 08 be 16 8e e2 3d e6 d6 e8 3d
       -0.035889093 -0.1329929 0.11062257 0.113691136
0001c0 c7 b0 79 3b 20 b2 ce bb 50 13 54 bd 05 82 74 bd
       0.0038099752 -0.0063078552 -0.05177623 -0.05969431
0001d0 9a e0 f7 bd a6 93 16 bc e6 13 1e 3c f3 f5 c1 bd
       -0.12103386 -0.009190476 0.009648299 -0.09470739
0001e0 fe 18 f8 3d 47 e1 02 be b9 36 b5 ba 55 06 1f bc
       0.12114142 -0.12781249 -0.0013825513 -0.0097060995
0001f0 a7 40 3a bb 6f 30 b1 3d af 96 b5 3d e8 0a 50 3d
       -0.0028419883 0.08651816 0.08866631 0.05079165

fc.weight f4 [1, 128]
000000 1b 04 25 3c 78 6b 96 bc a8 9d 10 3c 3f 1b e0 bc
       0.01007178 -0.018361792 0.008826651 -0.027356742
000010 c0 c3 8a bc fc 0e 6d bc 98 ac 10 3c 87 7c f7 3c
       -0.016939044 -0.014468905 0.008830212 0.030210746
000020 e9 29 4d bc 6b c5 dd bb 41 60 c7 bc 8a 38 6d 3c
       -0.012522199 -0.006767919 -0.02433789 0.014478812
000030 c0 d0 e7 38 f4 70 0c 3d cf 03 da 3d 46 68 1e bd
       0.00011053821 0.034287408 0.10645258 -0.03867366
000040 1c a9 9b bb 6e f4 6b 3d b0 b9 f5 39 c7 66 0d bd
       -0.004750384 0.057606153 0.0004686839 -0.034521844
000050 f8 9a 4f 3c 7a 9a c8 bc 56 2a aa bc fc 5c c5 bc
       0.012671225 -0.024487723 -0.02077214 -0.02409219
000060 84 d2 59 3d 0c 7c 76 bb f3 cc 8a 3d 0a 6e c1 3c
       0.05317928 -0.0037610559 0.06777372 0.023612041
000070 63 f4 01 3d 24 67 5b bc ba 47 18 bc 92 4b 36 3c
       0.031727206 -0.01339129 -0.009294445 0.011126416
000080 f1 9a 26 3d 64 5d f0 ba 0d 78 24 3d 26 c9 5e bc
       0.040675107 -0.001833838 0.04015355 -0.013597762
000090 51 96 cc bc b6 ba ad 3c a2 2e 03 bd cf 70 c5 bb
       -0.02497402 0.021207195 -0.032026894 -0.0060254107
0000a0 ed d4 9a 3c bd 3b 87 3c a2 1d c5 3b b9 18 4a 3d
       0.018900359 0.016507978 0.0060154954 0.049339984
0000b0 62 e3 07 bc c6 fb 06 bc 10 e8 0e 3d 50 91 76 ba
       -0.008293958 -0.008238738 0.03488928 -0.00094058085
0000c0 58 09 a2 bc 26 9e 1a 3c dc 08 e9 3c 61 b6 c9 3a
       -0.019779846 0.00943712 0.028446607 0.0015389436
0000d0 ba c0 e7 3c 2d 37 57 bc da bb 74 3c c9 6b 55 ba
       0.028290141 -0.0131357135 0.014937365 -0.00081413664
0000e0 2c df ce bc 17 fb 19 3c bd 0e 26 3d 4b 22 90 3c
       -0.025252901 0.009398243 0.0405414 0.017594477
0000f0 36 40 f9 bb e3 01 a5 3d 79 da 74 3b 0a 5d 2b 3c
       -0.0076065315 0.080570005 0.0037361665 0.010459194
000100 4c 45 bb ba 68 7c 7a b9 2d 3a e2 bc c7 1e b4 3c
       -0.001428762 -0.00023888203 -0.027615631 0.021987332
000110 9a 3e 31 3d f2 95 98 3c e3 dd 1a bd 1c 4b 5b 3c
       0.043272592 0.018626187 -0.037809264 0.013384607
000120 9b 95 21 bb ec c2 af bc 71 cf 42 bc 20 3d 85 3c
       -0.0024655822 -0.02145525 -0.011890278 0.016264498
000130 7e 15 12 bd c6 1f cf 3d ec 3e 7a 3c 64 dc 37 3d
       -0.035665028 0.10113482 0.015273791 0.044887915
000140 9d 0b 1a 3d 40 7e 17 3d 6c 54 ab bc ce 57 06 3c
       0.03760873 0.036985636 -0.020914279 0.008199645
000150 3a 43 0a bc 48 0d f2 3d 9c 8c c1 bc 8c 30 55 bc
       -0.00843888 0.118189394 -0.023626618 -0.013012063
000160 17 6b 00 3d da ab 22 3c 1d fb e2 3b 5f 02 9b 3d
       0.03135213 0.009928668 0.0069269077 0.075688116
000170 fa a2 73 bc 41 65 14 3c 15 ba f8 3c db df cb bc
       -0.0148704 0.009057344 0.030362168 -0.024887016
000180 78 ad c1 3c 1b 71 dc 3c 40 e8 43 bc 8d 47 cc 3b
       0.023642287 0.026909402 -0.011957228 0.0062341155
000190 ea fb 3e 3d a7 c5 a1 3b a3 85 c7 3c b4 29 72 3c
       0.046626963 0.004936892 0.024355715 0.014780451
0001a0 ea d6 74 3c 75 7f f2 ba 59 7a 8a bc 71 12 59 3c
       0.014943818 -0.001850112 -0.016904043 0.013249026
0001b0 bd 84 18 bd 60 82 eb 38 aa a1 55 3d db 40 85 3b
       -0.037235964 0.000112299575 0.052156128 0.0040665693
0001c0 e2 f8 f2 3c 9f be ab 3c 0d 31 eb 3c 0b 16 84 3c
       0.029659692 0.020964919 0.028709913 0.016123792
0001d0 f5 c4 d6 3c a8 de e8 3a 78 37 f4 bc d4 d4 3a 3d
       0.026216963 0.0017766552 -0.029811606 0.045613125
0001e0 a8 14 c8 3d 8a 0a 4f bc 76 78 42 bc aa 07 8e bb
       0.09769565 -0.01263679 -0.01186954 -0.0043344097
0001f0 b0 53 23 3d 2a c8 56 3b 81 76 19 3c 16 e4 1a 3d
       0.039874732 0.0032773116 0.009366632 0.037815176
