best_model_torque_wval.pth (torch, 8798 bytes, 5 tensors)

conv.weight f4 [16, 5, 9]
000000 7a c8 01 bd 4d 44 72 3c a3 50 18 3d e5 67 f0 3c
       -0.03168533 0.014786792 0.037186276 0.029346416
000010 62 21 05 3d c3 5f 10 3c bb 16 aa bb 6e ef 6b bc
       0.03250254 0.008811894 -0.005190698 -0.014400346
000020 d7 a7 93 bc e1 87 08 bc 1f ca 8a 3c 47 2c cc bb
       -0.018024368 -0.008333177 0.016942082 -0.006230864
000030 8a fe 20 3c 2d f4 cd bb f0 bd a7 bb a2 a3 7c bc
       0.009826312 -0.0062852115 -0.005119078 -0.0154198725
000040 a8 2a 23 bd b0 90 dd 38 a1 24 ac ba d0 8b ee bb
       -0.039835602 0.00010565051 -0.0013133475 -0.0072798505
000050 51 5c 76 3b ec 2e 19 bc 8e 9a dc 3a a0 54 3c bc
       0.0037591646 -0.009349566 0.0016830729 -0.011494786
000060 d9 36 2e bd e6 28 c0 3c e2 92 d2 bb 38 70 0b 3c
       -0.042532776 0.023457002 -0.006426201 0.008510642
000070 6d 82 8c bc 65 5c 05 3c d1 2f d5 3b 27 be 84 39
       -0.017152036 0.008139704 0.0065059443 0.00025318676
000080 e6 f2 04 bc 77 45 0a 3d 8a 15 bd bb 53 ef 1b 3d
       -0.008114552 0.033757653 -0.00577039 0.038070034
000090 35 7b a5 bb dc 1c c8 38 28 a1 09 3c 75 2e 22 3d
       -0.005050088 9.542119e-05 0.008400239 0.039595086
0000a0 f5 32 44 3d f2 75 bc bb 43 8b 05 3b d7 95 29 3c
       0.04790016 -0.005751365 0.0020377196 0.010350666
0000b0 60 2d 2a ba 9f 71 81 3c 0f 6a 33 3d 78 46 2e bc
       -0.0006491747 0.01580125 0.043802317 -0.010636918
0000c0 5e 1d 48 bc 7b 16 78 bc 28 38 84 ba 54 db 0f bc
       -0.012214033 -0.0151420785 -0.0010087537 -0.008780319
0000d0 b5 f6 0d ba bd c2 3d 3d 95 32 cb bb da 74 cf 3b
       -0.00054154854 0.046328295 -0.006201098 0.0063310685
0000e0 8a e9 b8 bc a8 3e fd 3c a5 5f da bb c3 b8 8a 3b
       -0.022572298 0.030913666 -0.0066642337 0.004233451
0000f0 b7 32 aa b9 5f 22 9e bb ce f6 07 ba 55 6c 02 3c
       -0.00032462712 -0.0048258747 -0.0005186618 0.007960399
000100 4c cd 00 3c bd b5 73 3b 70 f5 e8 bc 68 45 54 3a
       0.007861447 0.0037187182 -0.028437346 0.00080975005
000110 95 10 00 3c b4 9b 52 3c a4 50 f2 3b d6 79 2d 3d
       0.007816453 0.012854505 0.007394867 0.04235252
000120 32 0d 01 3c 11 5e 87 3a 6c 10 ec 3a 34 de 91 bc
       0.007876681 0.0010327717 0.0018010265 -0.01780615
000130 d4 37 52 39 a4 d0 88 bb 5c 7d 15 bb b2 9e c3 3c
       0.00020047958 -0.0041752625 -0.0022810316 0.023879383
000140 bd fb 21 bb 5a 8c ce bc 8c 75 ee 3c 23 26 9f 3a
       -0.0024716698 -0.02521341 0.029108785 0.0012142103
000150 19 66 b7 bb d0 5d aa ba 98 0f 3d ba ea 02 1a 3b
       -0.005596888 -0.0012997929 -0.00072121015 0.0023500272
000160 96 c4 bc 3b 33 e4 0f 3b bb 54 75 3d c1 b8 3d 3d
       0.0057607396 0.0021956086 0.05989526 0.046318773
000170 64 97 23 b9 b0 06 fb b9 83 0c 0f bd 1c 05 60 bd
       -0.00015601289 -0.00047879433 -0.03492404 -0.054692373
000180 57 39 04 bd e0 1c 1e bd 8a a6 1c bd 50 e3 f4 3b
       -0.032281246 -0.038601756 -0.03824476 0.007473387
000190 56 84 4c 3b 7f 26 34 bc 42 d3 4d bc d1 e7 e0 bb
       0.0031206808 -0.010995506 -0.012562575 -0.006863572
0001a0 ba 31 be bb d3 0b 47 bb 30 fa 1e bb c2 a1 0c bb
       -0.0058042677 -0.0030372038 -0.002425801 -0.002145872
0001b0 e2 1b a5 bc 2a d6 50 bc 06 df 5e bc 5a 73 28 bc
       -0.020154897 -0.012746373 -0.013602978 -0.010281408
0001c0 2c 0b 7a bc ca 14 15 3b 29 21 d9 3c 56 0d 42 bb
       -0.015261453 0.0022747987 0.02650507 -0.002961
0001d0 7b 86 aa 3a 80 8b 85 3a 52 fb 99 bb 41 cf 7d 3a
       0.0013010049 0.0010188669 -0.004699149 0.00096820673
0001e0 8b 11 85 b9 de a8 c6 ba 30 b5 f5 3c dd 4e 10 bd
       -0.00025380807 -0.0015156528 0.029993623 -0.03523146
0001f0 93 2d 94 bc d9 b4 23 3c f8 59 c0 bc 03 c2 a3 3b
       -0.018088138 0.009991848 -0.0234804 0.0049974932
000200 1d 62 9b bc 90 8b 48 3c c8 3b 45 bd d9 b1 c9 39
       -0.018967682 0.012240306 -0.048152715 0.00038470214
000210 6c ab 80 bb 31 6c 20 3d be 51 46 3c 89 93 f1 3c
       -0.003926685 0.03916568 0.01210445 0.029489296
000220 c9 3d 8c 3c 9a 9b 39 bc 61 85 26 bd 40 5b 5c bc
       0.017119305 -0.011328602 -0.040654544 -0.01344949
000230 f8 d4 75 bc 2e d6 0d bd 76 3f 31 bd 74 1d 5f bc
       -0.015004389 -0.034628086 -0.04327341 -0.013617862
000240 2c d6 38 3a 78 6d 2f 3d 1a 71 b4 3b 30 ce 8f bc
       0.0007050957 0.042829007 0.005506647 -0.017554373
000250 80 1d ac 39 68 64 07 bd 79 65 19 3b cd 46 32 bc
       0.00032828376 -0.03305474 0.002340643 -0.010881138
000260 ce 5f 8c bb 84 25 af 3b 1b 92 ed 3b fa 87 58 ba
       -0.0042838817 0.0053450484 0.007250083 -0.0008260008
000270 ae cb 8c bc 42 40 b0 3a 7e 9f 67 bb f6 e2 c9 3c
       -0.017186966 0.0013446885 -0.0035342867 0.024644356
000280 f2 4e 41 3c 79 2c 06 bd 93 b0 0a bc 01 e0 ea 3c
       0.011798607 -0.032757256 -0.00846495 0.028671267
000290 0c 51 1e bc 8a f5 fb 3b 78 2f 57 3b 9b 1e 16 3c
       -0.009662878 0.0076891826 0.003283469 0.00916257
0002a0 c4 47 a8 3a 36 65 26 3c 8a 55 ea bc 51 a6 87 3a
       0.0012838771 0.0101559665 -0.028605241 0.0010349249
0002b0 d1 84 f9 bb 8a 82 00 bc 73 a4 f7 bb 89 0f 3c 3b
       -0.00761471 -0.007843623 -0.0075574457 0.0028695783
0002c0 8b 2d 52 bd 05 68 b7 b9 b9 01 3c 3c 0e be 13 bb
       -0.051312964 -0.0003498198 0.01147502 -0.0022543701
0002d0 26 36 27 bb b1 62 61 3a f3 bc 14 bc 6b 08 40 bd
       -0.0025514453 0.0008597775 -0.009078252 -0.046883028
0002e0 66 c6 51 3b 0c 8a 9f 3b d8 cd 20 3c 53 3f 54 3b
       0.0032009124 0.0048687514 0.009814702 0.0032386377
0002f0 d3 87 61 bb 10 fb 96 39 a1 b4 17 bc f2 88 3a 3d
       -0.0034413233 0.00028797286 -0.009259374 0.045540757
000300 e9 73 32 bc 7b 41 33 3d 87 4f 11 bb 4b 11 cd 3c
       -0.010891893 0.04376362 -0.0022172646 0.02503266
000310 a4 99 1f bc c5 3a 34 bd b8 76 29 bd c2 84 17 bc
       -0.009741221 -0.04400136 -0.041372985 -0.0092479605
000320 12 b1 cb 3b 90 fa 2a 3d 8b 40 b9 3b d2 e7 cc 3a
       0.006216177 0.04174286 0.005653446 0.0015633053
000330 39 0b 04 3c 1c 98 90 3c 82 77 bf 3b 3d ff 85 bc
       0.008059316 0.017650656 0.005843104 -0.016357059
000340 d8 5b 82 3b 57 70 10 bc aa 7a e5 3a 71 e2 e4 3c
       0.003978234 -0.008815846 0.001750787 0.027940007
000350 95 63 86 bc 63 8d 06 3d 43 c0 9a bc 7d 37 15 bc
       -0.016404906 0.03284968 -0.018890506 -0.009107468
000360 aa 81 25 bb e7 7c 22 bb 15 ac 0c bc 93 d7 1f 3b
       -0.0025254288 -0.0024793686 -0.008585949 0.0024389967
000370 10 ea 57 bc 3c 81 db 3a cc fd d0 ba 42 4a 45 bb
       -0.013178363 0.0016746889 -0.0015944778 -0.0030104076
000380 62 bb d1 3a 99 9c 92 3b 67 dc 27 3c d3 0f 4d bd
       0.0016001279 0.0044742343 0.010245419 -0.05006392
000390 48 4b 4c 3c 01 a0 28 3d e9 12 4b ba 28 28 ff 3c
       0.01246912 0.041168217 -0.0007746653 0.031147078
0003a0 45 a3 27 bc ca 42 52 3d 40 70 54 bc 93 51 52 3c
       -0.010231798 0.051333226 -0.012966216 0.012836832
0003b0 03 26 6d bb 6c 60 33 3d 82 0d 9c bb ed 05 94 3c
       -0.0036185987 0.043793127 -0.0047623524 0.018069232
0003c0 1b 75 90 3b 62 2a 4b bd cb 6c 20 bc 37 bf aa bb
       0.0044084913 -0.049600966 -0.009791563 -0.005210783
0003d0 ae 5f 26 3c 89 13 b0 bb 86 1c 32 bb 59 0d 7d 3c
       0.010154648 -0.0053734225 -0.0027177646 0.015445077
0003e0 72 f4 c1 39 82 86 c4 bb fe 78 0a bd ef 8c 0c bc
       0.00036993955 -0.00599748 -0.033806793 -0.008578523
0003f0 18 23 87 3a bb 20 5c ba 3b 2a 6f bc f5 58 6f 3c
       0.0010310141 -0.0008397211 -0.014597471 0.014608611

conv.bias f4 [16]
000000 31 a0 03 bd 9e 28 6a bb 00 9f 35 bd 59 ba 4a bc
       -0.032135192 -0.0035729776 -0.044341087 -0.01237353
000010 8b fb 2f bd 76 4d e0 bb bb 2e b9 bc f3 8e 0c bc
       -0.0429645 -0.0068451716 -0.02260529 -0.008579004
000020 5e 2b e9 3c bf 7d 33 bc b1 4b 3f bd 22 02 9f bb
       0.028463062 -0.010955273 -0.046703044 -0.004852549
000030 ab a4 0e bd 6a 95 20 3d 07 03 a5 3b 20 ab 82 bb
       -0.03482501 0.039204992 0.0050357613 -0.003987685

gate.weight f4 [16, 5, 9]
000000 68 f7 1b 3c 3c 29 19 bc 1c cb 11 3c 38 ae 4c bd
       0.009519435 -0.00934821 0.008898523 -0.049970835
000010 2b c0 9b 3b 0e 3d 85 3c e7 18 bc 3b db 38 c4 3b
       0.004753133 0.016264465 0.0057402733 0.005988223
000020 0d cc 4f bb ba 47 45 3d 77 23 c3 bb d7 3a 06 3d
       -0.0031707317 0.048164107 -0.0059551555 0.032770958
000030 f7 49 3a 3d 31 f1 e0 b9 9d 53 e7 b9 79 1b fa 3c
       0.045480695 -0.0004290431 -0.0004412205 0.030530678
000040 18 11 e6 b9 02 e6 de bb c0 9b b2 bb e0 c8 36 b7
       -0.00043881754 -0.0068023214 -0.0054506958 -1.0894815e-05
000050 51 f3 36 bb a7 09 ba bc 98 84 13 bc 2a 72 1f bc
       -0.0027916024 -0.02270968 -0.009003781 -0.009731809
000060 cf 93 16 3c ed 6c 71 b9 c0 c7 16 3c fe 0a e6 ba
       0.009190514 -0.00023024129 0.009202898 -0.0017550883
000070 81 3e 6e 3b 81 13 1b bc ed 89 d6 3a 79 8e d9 bc
       0.0036353173 -0.009465099 0.0016368009 -0.026557194
000080 28 73 4b 3d 91 a4 14 bc f8 ff 5a bc f0 9c 8e ba
       0.04967037 -0.009072439 -0.013366692 -0.0010880511
000090 75 b7 24 bd d6 c3 33 ba d5 c5 42 bd db 72 0c 3c
       -0.04021402 -0.000685749 -0.04755195 0.008572306
0000a0 be e6 3b bd ee 45 1c bd c9 2c a5 3c 4a 9b d1 3a
       -0.04587435 -0.038152628 0.020162957 0.0015991714
0000b0 1e 0a 20 bb dd ff 0a bc 90 3c 0d 3c dd 06 1f bc
       -0.0024420093 -0.008483854 0.008620396 -0.009706226
0000c0 27 38 06 bc 54 c9 44 ba c5 0e cb 3b 77 fd 0a 3d
       -0.008192099 -0.0007506807 0.006196829 0.03393313
0000d0 f3 ab 46 bb 2e cc c0 bb 4f ea 40 3b 5a fb df ba
       -0.0030314892 -0.005883715 0.0029436534 -0.0017088458
0000e0 02 b6 34 bd a9 1c 13 bc be e7 9d 3a a4 a7 92 38
       -0.04411889 -0.008979001 0.0012047214 6.993048e-05
0000f0 ab b7 e2 3b bb 8b 66 ba 0e 61 f2 bb 0e 1b ff 3a
       0.0069188676 -0.0008794625 -0.0073968237 0.0019463019
000100 9e 76 73 bc dd 24 1b bc 61 e4 f9 3a eb a5 29 3b
       -0.0148598235 -0.009469238 0.0019065255 0.0025886248
000110 0d 2d ef 3c d1 5e 1f ba 55 77 8f 3b 32 24 34 3b
       0.029196287 -0.00060794974 0.004378239 0.0027487394
000120 9b 18 3b bc de 3f ec 3a 58 cf 0d 3c 36 4c 0c bc
       -0.011419441 0.0018024405 0.008655392 -0.008563092
000130 c0 fe 13 bb c4 54 d7 3b 80 6b a8 ba 90 be 49 3d
       -0.0022582263 0.006571384 -0.001284942 0.049254
000140 41 32 0c bb 57 ce 24 3d 8d 26 21 3d f6 dd 2a 3b
       -0.0021392258 0.040235844 0.039343406 0.002607224
000150 db b1 2b bc bb 40 28 3d 87 a2 ae 3b c3 40 fd bc
       -0.010479416 0.041077357 0.0053294334 -0.03091467
000160 78 bd e3 3b 5d 0f 12 3d 7d a0 9e bb 96 2f 8e 39
       0.0069500767 0.035659183 -0.004840909 0.00027119805
000170 9d 28 10 3c 48 ea 07 3d 6a 4a f2 3c ae ec c7 bc
       0.008798745 0.033182412 0.029576499 -0.02440485
000180 45 af b2 3c 41 7c 1c bb 28 0e ae ba 3c f6 1d bd
       0.02181209 -0.0023877772 -0.0013279365 -0.038564906
000190 46 99 35 bd 49 09 03 bc 53 39 c3 3c de 93 19 3b
       -0.044335626 -0.007997819 0.023831045 0.0023434083
0001a0 ab 39 1d bc 1e 0a e5 39 15 c7 a4 bc 88 43 52 39
       -0.009596269 0.00043685822 -0.020114461 0.00020052318
0001b0 93 8e fd bb 66 62 cb 3a 96 84 c3 3b f0 b3 39 3b
       -0.0077379434 0.0015516996 0.005966733 0.002833601
0001c0 69 2d cf b9 8a c7 00 bc 2f 68 4b bb 6a 93 1e bc
       -0.0003951595 -0.007860074 -0.003103744 -0.009678701
0001d0 9c 93 a8 3b 94 74 c1 3c d3 db 1b bc c4 f1 1e bc
       0.0051445495 0.02361516 -0.009512859 -0.009701196
0001e0 60 a9 35 bd 39 d0 17 bb 65 6d 4a bd 47 44 a1 ba
       -0.04435098 -0.0023164882 -0.049420733 -0.0012303673
0001f0 eb 17 c3 bc 90 8c 06 bd 6e 95 50 3d c1 49 9e bb
       -0.023815116 -0.032848895 0.050923757 -0.0048305695
000200 11 51 18 bb 98 00 3b b8 fb e7 7c bb a5 03 36 bc
       -0.0023241679 -4.4584827e-05 -0.003859042 -0.011109267
000210 f6 4b 94 3b a1 02 dd 3b 38 87 2d bd 0c 4f 5d bb
       0.004525657 0.006744698 -0.042365283 -0.003376904
000220 e8 f6 38 b9 9e fd 02 bc c2 21 0e ba 29 96 1e bd
       -0.00017639587 -0.007995037 -0.00054219004 -0.038717423
000230 fa c9 14 3d f8 6d 2e 3a 74 3e 0d bb 10 d2 3d ba
       0.036325432 0.000665396 -0.0021552118 -0.00072410796
000240 75 5d ae bc de cd c2 bb 32 0f 59 bb 1b 0c 83 bb
       -0.021284798 -0.0059449514 -0.003312063 -0.003999246
000250 a2 9d 55 3c 06 b2 98 3b 1d a9 11 3d d2 bf f9 bb
       0.013038071 0.004659894 0.03556167 -0.0076217437
000260 0e ea a7 3b a6 f5 f8 b9 ec 32 a1 3b e9 4a 18 3c
       0.005124337 -0.00047485268 0.0049194004 0.009295204
000270 9f ab 3b 3d 9d 13 b0 3c 07 bc b6 3b bb 06 84 bb
       0.045817968 0.021493727 0.005576614 -0.0040291226
000280 ae ed 00 3d 00 12 b9 bb 1a 4a 0f 3c 9c 59 3c 3d
       0.03147667 -0.0056478977 0.0087456945 0.045983896
000290 c0 01 35 3d d3 95 c2 3c 80 91 6b bc 1f b5 ff 3c
       0.044191122 0.023753082 -0.014377952 0.031214295
0002a0 23 b1 12 3c 77 92 04 bd da 04 e1 bb 47 41 0a ba
       0.0089533655 -0.032366242 -0.0068670334 -0.00052740093
0002b0 73 ce 95 3b a5 8c c9 bb 49 26 58 39 51 eb 13 39
       0.00457173 -0.0061507993 0.00020613628 0.00014106675
0002c0 da 5e d1 3c b7 2b 0c bd ba f4 18 ba 1d 82 f9 3c
       0.025557924 -0.034221377 -0.0005834807 0.03045755
0002d0 d4 7f 0d 3c 33 92 a4 bb 4c 93 3b bd 85 82 33 3b
       0.008636434 -0.005022311 -0.04579477 0.0027391028
0002e0 6d 96 39 bc 96 7f 49 3b 20 ec ab b8 8e ee 9f 39
       -0.011327368 0.0030746213 -8.197897e-05 0.0003050458
0002f0 0e dc c5 3c c2 06 b4 ba c7 86 fd 3c 28 f2 1d ba
       0.024152782 -0.0013734924 0.030948056 -0.0006025159
000300 97 a6 44 bd db dd 0b 3d d1 96 aa bc a0 46 07 3c
       -0.048010435 0.034147125 -0.020823868 0.008256584
000310 f1 b1 2c 3b 43 80 51 3d a1 95 14 3c 8e f2 46 bd
       0.0026351179 0.05114771 0.009068877 -0.048571162
000320 70 fa 9e 37 84 da ca bc 2e 32 d6 3b b5 c0 22 3c
       1.8951687e-05 -0.0247624 0.0065367436 0.00993364
000330 e5 a5 42 3d d0 e3 ef 3c c0 ea e5 3b cf 9c 02 bd
       0.04752149 0.029283434 0.00701651 -0.031887826
000340 6b fa ef 39 46 ff 2e 3b 39 bc b3 bc 9c 67 f2 bb
       0.00045772208 0.0026702448 -0.021940337 -0.007397605
000350 13 a4 38 bd f7 c5 c2 bc 06 ef 20 bc ba 9d e9 3a
       -0.04507835 -0.023776038 -0.009822613 0.0017823495
000360 93 00 53 bd b9 04 15 bc 08 ca 3c 3b 08 79 5f bb
       -0.05151422 -0.009095364 0.0028806943 -0.003409924
000370 10 55 1e bc 4d 51 00 3a d4 c3 1e 3d ad 16 02 bd
       -0.009663835 0.0004894927 0.038760975 -0.031759907
000380 ca a9 7f 3c 4f 6f 25 bb 0b 31 74 bb 0a 92 01 3b
       0.015604446 -0.0025243347 -0.0037260677 0.0019770884
000390 2b a5 72 3c 7f 14 e8 3a 36 24 2e 3b 45 b3 52 3b
       0.014809887 0.0017706304 0.0026571876 0.003215031
0003a0 40 99 6e 3a c7 40 37 bd 46 1e 4c 3d 0f 0e 17 3c
       0.00091018155 -0.04473951 0.04983356 0.00921966
0003b0 fe c1 be 3b 58 1d db 3b ca e8 f6 bc 4a ec cf 3a
       0.0058214655 0.0066868477 -0.0301403 0.0015863266
0003c0 0a 10 24 bb 91 6b 80 bc fa fa 01 3c 9b a5 4f 3b
       -0.0025033974 -0.015676292 0.007933373 0.0031684402
0003d0 86 4e 41 bd b9 f3 22 3a 41 a6 d0 ba f4 25 21 bb
       -0.047194026 0.0006216127 -0.0015918688 -0.0024589272
0003e0 1e ef 5f 3c 76 80 06 3c b3 34 04 3c 09 ed d4 bb
       0.01366785 0.008209338 0.008069205 -0.0064979834
0003f0 77 81 f5 3c 93 34 41 3d 3a 41 fc ba d1 b8 ac 3c
       0.02996896 0.04716928 -0.0019245513 0.021084221

gate.bias f4 [16]
000000 0c 5f b8 bb fb 72 0c 3d 10 27 23 3d de 80 82 3a
       -0.005626565 0.03428934 0.039832175 0.0009956618
000010 2a 60 e5 bb b9 e4 2f 3c 54 b3 76 38 72 af 5d 3b
       -0.006999989 0.010735684 5.8817983e-05 0.0033826497
000020 e4 88 8b bb 81 78 f9 bb e5 9e 23 bc d4 6c 5c 39
       -0.004258262 -0.007613242 -0.009986614 0.00021021377
000030 dc 86 18 3b fd b3 52 bd 5c d3 fc b9 79 66 3a 3d
       0.0023273742 -0.05144118 -0.0004822266 0.04550788

fc.weight f4 [1, 16]
000000 41 c1 8a 3d 86 64 a0 3c c5 89 1e 3e 3b ca 70 3d
       0.067751415 0.019579183 0.15482242 0.058786612
000010 ff 30 e5 3c 9c cb 85 3d 36 1e 8b 3c 12 e8 af 3d
       0.027977465 0.06532976 0.01698218 0.08589186
000020 04 2d 9f 3d 49 d8 61 3d c3 b8 be 3c 22 da 14 bd
       0.07772258 0.055137906 0.02328146 -0.03634084
000030 5f 44 0f be 1c fc 12 3d 77 12 97 bc 8d 98 38 3d
       -0.13990925 0.03588496 -0.018441422 0.04506736
