best_model_imu_noval.pth (torch, 15882 bytes, 5 tensors)

conv.weight f4 [64, 6, 4]
000000 a5 ad 73 bd 7f c1 35 3d 2c f0 68 3b d9 7f 54 3d
       -0.059491772 0.044373985 0.0035543544 0.051879738
000010 63 4f 5b bc 23 3d 5d 39 9f d8 49 bc 96 f2 2c bd
       -0.0133856265 0.00021098978 -0.012319713 -0.042223535
000020 6f f8 1e 3d 6c 80 06 3c da cb 36 3c 9c 96 93 3b
       0.038811143 0.008209329 0.011157 0.004504038
000030 98 52 a4 bd 14 b7 84 bd 54 03 a2 bb 69 91 42 3c
       -0.08023566 -0.06480232 -0.0049442444 0.011875489
000040 fd 9f 66 bb 82 40 4e bb 7f e3 33 3c 10 7b b1 bc
       -0.0035190575 -0.0031471555 0.010979532 -0.021665126
000050 41 28 1d 3c 2d 81 69 3c 8b 56 58 3c 13 3f 55 bc
       0.009592117 0.014251989 0.013204227 -0.013015526
000060 0c e7 52 3c 37 8c 0f 3d cf 7f f5 bb c4 c7 1d b9
       0.012872469 0.03504583 -0.0074920426 -0.00015047105
000070 73 74 00 3d f7 1a b5 bb 86 47 7f bd 97 53 05 3c
       0.031361055 -0.005526896 -0.06232407 0.008137605
000080 9b 09 cd bc ec d7 e9 ba c2 7e b9 3a 84 86 6d bc
       -0.025028994 -0.0017840839 0.0014152157 -0.014497403
000090 34 54 6e bc b3 9b 4c 3a 09 55 80 bc 85 7e 3c bc
       -0.014546443 0.00078051834 -0.015665548 -0.011504774
0000a0 12 f0 d3 3b ee cd c3 3d 4b 89 12 3d cc 17 fd 3b
       0.0064678276 0.09560762 0.035775464 0.007723784
0000b0 16 cf ac bc f8 6a cb 3c 86 ca 79 3c 32 25 c3 bc
       -0.02109484 0.02483128 0.015246039 -0.023821447
0000c0 bc fb 17 bc 7f f4 81 3b 25 ef 2e bc b3 d0 5f 3d
       -0.009276327 0.003965914 -0.010677134 0.05464239
0000d0 13 fd 12 bb 97 65 67 3c bd a7 23 3c 4f 89 99 bc
       -0.0022428676 0.014123342 0.009988722 -0.018742232
0000e0 6b a7 cf bd 36 35 bc bd 8f c6 01 bc 84 5c 9a bd
       -0.10139354 -0.09189837 -0.007920875 -0.07537177
0000f0 7f 71 be bd f3 70 2b 3c 66 fd 9d bd ea ce 54 3b
       -0.092989914 0.010463941 -0.077143475 0.0032471963
000100 f6 4c 04 3c 3b 85 9c 3c f5 0d 77 3d 41 b2 82 bd
       0.00807499 0.019106498 0.060316045 -0.063816555
000110 a7 e1 4c 3d db 0f f9 bc 9e cc 60 3c 23 4b 0e bc
       0.050019886 -0.030403068 0.01372066 -0.008684906
000120 71 dc 38 bd 73 6d b0 3a 15 5e f7 b9 98 c0 3c 3c
       -0.045132104 0.0013460353 -0.00047181608 0.011520527
000130 bf 99 10 3c dc 99 6f bd 41 46 3a bc b9 bd e6 bc
       0.008825718 -0.05849634 -0.011369289 -0.028166639
000140 f8 73 c7 3b 8a 9b c3 3a b9 5c 2e 3c d9 61 65 bc
       0.0060868226 0.0014923674 0.010642224 -0.0140003795
000150 d6 c2 35 bc 64 20 54 bc d4 b2 b8 bd 05 1a 0f bb
       -0.011093816 -0.012947176 -0.09018484 -0.0021835577
000160 17 0d 71 bc 1f 72 2e bc 77 20 a9 bc 57 13 20 bd
       -0.0147125935 -0.010647326 -0.020645363 -0.039080944
000170 a2 08 36 bc e1 9b 5f bd d2 e3 79 bb 32 fc 80 3b
       -0.011110457 -0.054592017 -0.0038130176 0.003936314
000180 86 59 1c 3b c0 a7 20 b8 d3 4e 6d 3b ca cf c5 3b
       0.002385707 -3.8303202e-05 0.0036210313 0.0060367333
000190 0d 45 48 bc b4 89 c2 3d a2 f3 e9 ba 23 4a 55 3c
       -0.012223494 0.09498921 -0.0017849097 0.013018164
0001a0 5e 39 e1 39 c4 f1 1f 3d 78 81 37 3c af 20 b0 bd
       0.00042958086 0.039048925 0.011200301 -0.08599984
0001b0 f6 18 60 bc 55 1b 14 bc 80 bd 42 3c ce f4 23 3c
       -0.013677826 -0.00903972 0.011886001 0.010007096
0001c0 f7 d0 41 3d 35 ef 8b 3d 18 2e e2 bb 94 2b 9b 3c
       0.047318425 0.068327345 -0.0069024675 0.018941678
0001d0 94 0f e1 3a cd 86 83 3c eb 05 18 3d 9e bd c8 bb
       0.001717078 0.016055489 0.03711502 -0.0061261198
0001e0 0e 00 28 3c ec 0f 58 bd 55 6d c0 3d 56 12 62 bc
       0.010253919 -0.05274956 0.093958534 -0.013798317
0001f0 b3 30 a4 ba f9 e1 35 bd d2 ac c9 3b 09 af 16 3d
       -0.001252672 -0.044404957 0.006154635 0.03678802
000200 98 6b d3 bc f2 83 ae bc ff 32 20 bd 5c d6 17 bb
       -0.02580814 -0.02130315 -0.039111134 -0.002316854
000210 cd ba 96 bb d1 3d 18 bd 47 13 94 3b f7 de 44 3c
       -0.004599905 -0.037168328 0.0045188996 0.01201605
000220 dd c0 ce bd 4e 50 ad 3d a1 98 93 bd 89 76 51 bb
       -0.100953795 0.084625825 -0.07206846 -0.0031961522
000230 46 62 ce 3a d7 0d fe 3b a6 bb 2d 3c d4 4a e9 38
       0.001574584 0.0077531147 0.010603821 0.000111242436
000240 f6 2f cc 3b 2c 66 f2 3c 08 ed 7f bc 8d b7 6f 3d
       0.0062313033 0.029589735 -0.0156204775 0.058524657
000250 41 f7 64 3d 19 60 0a 3c f0 95 40 bc 3d 66 b4 3d
       0.055899862 0.008445763 -0.011754498 0.08808563
000260 2a 81 b6 bd 0b 7a cc 3c 78 ee ae 3d bc 8a 8e 3b
       -0.08911355 0.024960538 0.08541578 0.0043500345
000270 16 06 df bc 00 22 0a 3b 41 c3 1b 3d 30 79 83 3b
       -0.027224582 0.0021077394 0.038028006 0.0040122494
000280 0c 27 a4 bc b4 71 ed 3b 03 5b ad 3c 28 ff a8 3c
       -0.02003815 0.0072462205 0.021161562 0.02062948
000290 2a b0 26 3c d9 0a 62 bd 47 d8 a5 3d 88 e2 91 3c
       0.010173837 -0.055186126 0.08097892 0.017808214
0002a0 71 be 68 bd 4a 62 9e bd 44 03 93 bd de 36 71 bc
       -0.056822244 -0.07733591 -0.07178357 -0.014722554
0002b0 f7 24 06 3d 22 71 b4 3d 49 85 c4 bb 53 4c 61 bb
       0.032750096 0.08810641 -0.005997334 -0.0034377768
0002c0 8f 09 a2 39 aa dc 32 3b b4 55 7c ba 0c 8c 07 3b
       0.0003090617 0.002729217 -0.0009625808 0.002068284
0002d0 54 01 27 bc ff 0d 43 3c bb 45 7c 3b cc 7a bc 3d
       -0.010193188 0.011905192 0.003849371 0.09203109
0002e0 d0 78 1b 3b be bf 80 3c 87 65 67 3c 2d 38 98 bd
       0.0023723133 0.01571643 0.014123327 -0.0743259
0002f0 3d 9d 32 bc 0d d0 a8 bc be e4 65 3c ff b8 8e 3d
       -0.010901746 -0.020607019 0.014031587 0.06968879
000300 cd 8b 29 3c 87 52 ed ba b6 a5 ca 3d 2a 1c 71 37
       0.0103482725 -0.001810626 0.09894888 1.4371277e-05
000310 24 a4 a9 bc 04 0e f9 bb 66 7c 14 3b c5 be 76 bd
       -0.020708151 -0.0076005477 0.0022657155 -0.060240526
000320 91 94 3e 3d 55 f7 66 3c f3 42 94 3d 5a 70 a5 bd
       0.046528403 0.0140970545 0.07239332 -0.0807807
000330 f9 a6 25 bb d9 30 54 bd 3e 95 0c 3d ea 1e 1a 3b
       -0.0025276525 -0.051804397 0.034322016 0.0023516961
000340 37 26 de bc 57 5f 8f 3c d9 33 a5 bd da 18 bc ba
       -0.027117832 0.017501516 -0.0806653 -0.0014350668
000350 8a 22 fa bb a9 74 f3 39 b0 96 15 3d ee f5 a1 3d
       -0.007633512 0.0004643549 0.03652066 0.079082355
000360 44 1b 36 ba e4 2c 97 3b 94 45 4d 3c a4 11 92 3d
       -0.0006946812 0.0046135057 0.012528796 0.07132271
000370 f7 8d 59 bd 8a 82 ae 3c 8b d9 c0 bd 2f 68 57 bd
       -0.053113904 0.02130248 -0.09416493 -0.05258959
000380 62 44 f9 bc e9 31 e0 3b 81 04 17 3c 7c e2 12 bd
       -0.030428115 0.0068418873 0.009217382 -0.035860524
000390 22 44 5c bc 73 a5 58 3c c9 9e b6 bd 60 a4 73 bb
       -0.0134439785 0.01322304 -0.089170046 -0.0037176833
0003a0 f3 b9 c2 3c 22 5f 2a 3d b6 b6 c7 ba ad e5 b7 bd
       0.023770308 0.041594632 -0.0015236947 -0.08979354
0003b0 7c e4 73 ba 8e 70 9e bb 9c 1e 5b bd 46 dd b3 3d
       -0.0009303761 -0.004835195 -0.05349599 0.08782439
0003c0 68 14 2c bd b1 c5 62 3d 12 1c 54 3d db 81 82 3c
       -0.04201165 0.055364314 0.051784582 0.01593106
0003d0 4e b9 03 bd f7 59 7f 3d c7 d0 b2 3b 84 85 18 3c
       -0.032159142 0.062341657 0.005457017 0.009309176
0003e0 fe a3 f7 39 32 45 28 3b 42 52 46 3c bc 57 60 3c
       0.00047233695 0.002567601 0.012104573 0.0136927925
0003f0 7d d1 e6 bc 6b 60 0f bd af 7a 47 bb 83 56 9d ba
       -0.028176064 -0.03500406 -0.0030438115 -0.0012003932

conv.bias f4 [64]
000000 b7 72 07 bc a9 0f 99 bd 0b 5b b8 bd e2 d2 98 3d
       -0.008267096 -0.0747369 -0.0900174 0.07462098
000010 f0 ca 8f 3d b1 b7 c7 bd d3 8a 19 bc db 78 62 bc
       0.07021129 -0.09751833 -0.009371477 -0.0138227595
000020 80 2d 9c bd ef 6e 3e 3a 90 a3 19 3c 4b 37 81 bb
       -0.07625866 0.0007264455 0.009377375 -0.003943359
000030 98 51 79 ba 3d 77 90 3c 81 62 49 bc 75 e0 5a 3b
       -0.00095107546 0.017634982 -0.012291552 0.0033397947
000040 c1 b3 b1 3a 07 06 83 bc 23 a9 ef b9 af aa c4 bc
       0.0013557599 -0.015994085 -0.0004571165 -0.02400717
000050 c1 88 c1 bc 7e 34 3f bc 40 c8 de bc f1 87 a2 bd
       -0.02362478 -0.01167023 -0.027195096 -0.07936085
000060 5c 2a ac 3c a0 40 01 3d 50 3d 31 bd 9c ee 10 bb
       0.021016292 0.03155577 -0.043271363 -0.0022114879
000070 cb dd 88 bd 6e 4d 4e bc 3e 70 39 bb 11 c6 19 bc
       -0.06682929 -0.012591703 -0.0028295661 -0.009385602
000080 e0 81 47 bc 85 db 26 bb 35 35 fa 3c 36 1e fe bb
       -0.012176961 -0.0025460434 0.03054295 -0.0077550663
000090 78 53 bb 3c 07 0b 89 3b ce cf 95 bb d3 61 37 bc
       0.02286695 0.0041822228 -0.0045718914 -0.011192757
0000a0 98 c2 1c 3c f5 df 88 3c 1c 9b 00 bc 08 33 6c 3c
       0.009567879 0.016708354 -0.007849481 0.014416464
0000b0 42 9b 0a 3c f0 a2 e9 3b 67 c8 8c 3b a3 33 9e 3d
       0.008459868 0.0071300194 0.0042963508 0.07724693
0000c0 19 4f 34 3a ef 6d 25 bd 5a 07 85 ba b7 65 87 ba
       0.00068782415 -0.040388044 -0.0010149286 -0.0010329996
0000d0 82 e6 8f 3d 59 b4 57 3d fc 38 6a bb 8a b7 71 bb
       0.07026388 0.052662227 -0.0035739532 -0.003688308
0000e0 e0 60 ea 3a 93 bb c4 3d 0e 99 48 3d 27 d0 9a 3b
       0.0017881654 0.096060894 0.04897409 0.0047245207
0000f0 09 10 a5 bb e6 ed ba bd 3b 8b 68 3c 6f 66 29 3c
       -0.005037312 -0.09127407 0.014193351 0.0103393635

gate.weight f4 [64, 6, 4]
000000 41 36 b1 bd 26 8f 15 3a d5 b7 35 3b db 08 1f bd
       -0.08652926 0.00057052297 0.002772798 -0.038826805
000010 62 46 c6 ba 9c 6c 91 bd af 75 06 3c a1 a3 5d 3c
       -0.0015127177 -0.07100794 0.008206769 0.013527782
000020 6f ac 60 bc c1 58 36 3c 74 a0 c5 bd e0 a9 41 3c
       -0.013712986 0.011129559 -0.09649745 0.0118202865
000030 9e c0 c5 bd ce 06 60 bb 92 e9 d2 3b 7e 00 42 bc
       -0.096558794 -0.0034183743 0.006436535 -0.011840938
000040 72 bb 5b bc d1 86 54 3c f1 3b 90 bd 2e 9a 5b bc
       -0.01341139 0.012971596 -0.07042683 -0.0134034585
000050 22 4d cc 3d f7 a8 3f bd 3b 35 d2 b9 03 77 96 bb
       0.099756494 -0.046791997 -0.0004009398 -0.004591824
000060 31 b3 6a bb 43 28 87 3d f0 51 7b bd c1 5d b5 3d
       -0.0035812373 0.06599476 -0.06135744 0.08855773
000070 b0 a2 3c bd fb 05 74 bc bf c4 3a bc ed 8e 59 bc
       -0.04605359 -0.014894004 -0.011399447 -0.013278705
000080 c3 9e 6a bd 61 ce e8 3a 25 93 b0 3d ea f8 9f 3b
       -0.057280313 0.0017761701 0.086218156 0.004881968
000090 56 13 b0 3c ea f0 69 bc 0d 32 42 bc 26 e3 7d 3d
       0.021493595 -0.01427863 -0.011852753 0.061984204
0000a0 82 cc b5 bd f5 06 93 bd 38 8a e4 3b 11 5b 8f b9
       -0.088768974 -0.07179061 0.006974485 -0.00027342935
0000b0 97 05 ee bc ad b7 65 3d d0 d1 ce ba 57 de b9 3d
       -0.0290554 0.05608337 -0.0015779082 0.09075611
0000c0 50 91 23 3d 50 e5 8d bd cb 9d 13 bb 38 88 df bb
       0.039933503 -0.069285035 -0.0022524472 -0.0068216585
0000d0 72 13 fa 3b 5d d7 25 bd d6 40 a3 bd c1 49 60 bc
       0.0076317126 -0.04048859 -0.07971351 -0.013689459
0000e0 57 2b c9 ba d1 a7 8c 3d b4 ae 3f bd 2b 59 bc bc
       -0.0015347999 0.06867946 -0.04679747 -0.022991737
0000f0 a0 16 ad 3a ff 2d 09 3d 5c b3 38 3c e4 e7 c5 bd
       0.0013205595 0.03349113 0.011273231 -0.0966337
000100 20 60 87 3c 70 cf fe 3c 42 e2 b5 bb 82 9e 86 3d
       0.016525328 0.031104773 -0.0055506537 0.06573202
000110 97 b5 48 3b 6f 51 61 b9 89 ed 98 3c 20 7d 3b 3d
       0.0030625814 -0.00021488008 0.018667953 0.045773625
000120 5a fb a1 bd 70 22 98 bd 5d f1 17 3c 7b df 8f 3a
       -0.0790927 -0.074284434 0.009273854 0.0010976637
000130 c7 5b 3b 3c 96 4e cd 3d 96 cd b8 b9 a9 15 69 bd
       0.011435456 0.10024755 -0.00035248388 -0.056905422
000140 8a 4d 90 bb 02 1f 49 3d b9 81 3b bb 73 b5 19 3c
       -0.0044037746 0.049101837 -0.0028611256 0.00938164
000150 01 28 2d 3c 53 58 32 bd 53 57 86 3d fb 29 a6 bd
       0.01056862 -0.043541264 0.065596245 -0.08113476
000160 46 98 42 bd a2 76 b5 bd 5f bd cb bd a2 76 5f bc
       -0.0475085 -0.08860518 -0.09948229 -0.013639124
000170 e5 40 ef 3a 3d af d5 3a 55 05 5c bc c5 05 f0 bc
       0.0018253593 0.0016302835 -0.013429006 -0.029299626
000180 d1 0f df bb 40 8c 1e 3c ee 11 33 3a 85 b1 10 bd
       -0.0068073054 0.009676993 0.000683098 -0.035325546
000190 75 87 0a 3c 9a de 83 bd 4e b3 ca bd 2c 1b 09 3c
       0.008455147 -0.06438942 -0.09897481 0.008368295
0001a0 66 f7 21 bd a7 e8 2f 3c 74 42 3f 3c 22 9a 8f 3d
       -0.03954258 0.010736621 0.0116735585 0.070118204
0001b0 cd 6b b5 3d 9f 0b a5 3d 08 4f e5 3b b0 62 40 bc
       0.08858452 0.08058857 0.0069979466 -0.011742279
0001c0 85 9b 6e 3a db 4a af 3a 99 4c 99 ba 50 0c f0 3a
       0.00091021537 0.0013373749 -0.0011695802 0.0018314216
0001d0 58 94 53 3a f0 c2 e7 38 85 6c f1 b9 43 09 4d 3c
       0.0008071116 0.00011051248 -0.00046047955 0.012514415
0001e0 1f 6c 86 3d e1 7f 53 3d aa 77 44 bd 58 52 e2 3c
       0.06563591 0.051635627 -0.047965683 0.027627155
0001f0 76 05 36 bc 00 a6 22 bd 79 ef 87 bd e9 c0 cf 3d
       -0.0111097 -0.03970909 -0.06637473 0.101442166
000200 af a4 e9 ba 35 99 64 3d 6f e4 a7 bd 4d 10 ad 3d
       -0.0017825569 0.055810172 -0.08197867 0.08450375
000210 78 98 5f bc b7 20 8f bd cb 14 95 39 06 90 bf b9
       -0.013647191 -0.06988662 0.00028434987 -0.00036537665
000220 09 64 0c ba 42 6d 3e 3b 21 c1 19 3c 7c 7a 46 3c
       -0.00053554826 0.0029056822 0.009384424 0.0121141635
000230 fc 5a 5c 39 b7 8f 9d 3d df fc 8a bd d9 89 5f bc
       0.0002101473 0.07693427 -0.067865126 -0.013643705
000240 91 10 52 3d ba bf a0 3d 2a 26 27 3c e0 09 2b bc
       0.05128533 0.07849069 0.01020197 -0.010439366
000250 a2 f2 88 3b 86 f5 b1 3a f4 d5 f7 3b 7a 13 57 bd
       0.0041793147 0.00135772 0.007563347 -0.05250881
000260 64 59 41 ba 5c 6f b3 3d e9 cc fd 3b 66 93 86 bb
       -0.0007375686 0.087614745 0.0077453745 -0.0041069267
000270 fb be 90 3d 5f b4 60 3c 5c f7 ee bc a7 00 0b bb
       0.07067677 0.013714879 -0.029170685 -0.0021210106
000280 e6 ed 68 bd f3 00 a7 bd e7 5f c3 ba 2f 16 48 3c
       -0.056867503 -0.08154478 -0.00149059 0.01221232
000290 81 1a 28 ba 77 09 0b bc af 19 9e 3d fb 7b 49 3b
       -0.0006412641 -0.008486143 0.077197425 0.0030744064
0002a0 ba 5c 55 3c 48 d9 99 3b 26 2c 21 3c dc 7c 3c bb
       0.013022596 0.0046950914 0.009837186 -0.0028760945
0002b0 80 de af 3d fb cc 86 bd c6 17 4b 3d 50 9b 3c 3c
       0.085873604 -0.06582066 0.04958322 0.011511639
0002c0 d5 5c 29 3d 9e 47 dd bc f8 4a be bd 8a 14 09 bd
       0.041348297 -0.027011689 -0.09291643 -0.033466853
0002d0 1f 8e b2 3c bb 4c 10 3d 5f 0f 8f 3d e0 35 fe 3c
       0.021796284 0.035229426 0.06985354 0.031031549
0002e0 6d 44 ce bb 70 b1 bc 3d 98 0b 23 bb 87 b6 18 bb
       -0.006294778 0.09213531 -0.0024878737 -0.0023302154
0002f0 db 45 bd 3c 75 4d 05 bd f7 2b 03 bd 1f 84 94 3b
       0.023104599 -0.032544572 -0.03202435 0.0045323516
000300 cf 7c 50 bc 77 1b 86 3d 04 26 21 39 0d 6e dd ba
       -0.012725069 0.06548207 0.00015368318 -0.001689376
000310 d2 5e 08 ba 69 90 fe 3b 79 99 62 bc 0e bf 06 3d
       -0.00052021176 0.00776868 -0.013830536 0.032897048
000320 22 46 00 bd e8 06 08 3d 3b 90 26 bb b5 60 11 3d
       -0.031316884 0.03320971 -0.0025415558 0.035492618
000330 5d 02 ee 3a f5 3c ba 3d 23 98 b5 bd 19 23 94 3c
       0.0018158663 0.09093658 -0.088669084 0.018083142
000340 27 f6 b4 3a fc 8e 59 3c 6d e7 b2 ba 63 a8 4d bc
       0.0013806269 0.013278719 -0.0013649293 -0.012552354
000350 55 72 57 bc 4e ad 0d bd 56 9f 27 bc b0 5c 4e bd
       -0.0131498175 -0.034589104 -0.01023086 -0.050381362
000360 cb cd 63 3c cb 28 f9 3c e6 57 86 bb 8d 96 5a bd
       0.013904045 0.03041496 -0.004099834 -0.053366233
000370 2c 6c 36 bd 09 02 91 bd f4 a6 95 3b cf 94 c0 bd
       -0.044536754 -0.07080466 0.0045670215 -0.09403383
000380 0f b9 0e bd a7 2d 59 3d 09 7b 92 ba 25 62 6d ba
       -0.034844454 0.053022053 -0.0011175583 -0.0009055457
000390 b5 22 5f bc e6 ec 66 bd 88 06 e3 3c 61 3a 29 3c
       -0.013619115 -0.056378268 0.027713075 0.01032886
0003a0 16 16 c5 bd fd 37 09 b9 a5 89 10 3a 12 45 12 bc
       -0.09623353 -0.00013086195 0.00055136747 -0.0089276
0003b0 0f e8 49 ba cb 93 2f bc ab 58 b0 ba 8c f1 c2 bb
       -0.0007702121 -0.010716389 -0.001345416 -0.005949205
0003c0 01 24 4b bd f1 c1 83 3d fb b1 b7 bb 7f c8 b8 3a
       -0.049594883 0.06433476 -0.0056059337 0.0014097838
0003d0 a9 55 9a bb f2 99 4a 3c c7 ef fc 3a 41 41 1c ba
       -0.0047099185 0.012365805 0.0019297533 -0.00059606513
0003e0 09 2e 20 3d 1e 19 b6 bb c7 69 55 bc 42 9c 42 bc
       0.039106403 -0.0055571934 -0.013025708 -0.011878075
0003f0 39 25 09 3b 8d 22 9b bd b1 16 91 bd a6 90 d6 b8
       0.0020926727 -0.075749494 -0.07084406 -0.00010231258

gate.bias f4 [64]
000000 fc ad 93 bd 53 72 32 3b 05 01 08 3b 89 be 73 bb
       -0.07210919 0.0027228787 0.002075256 -0.0037192425
000010 9a 00 a8 bd 86 c5 bc 3b 5a 04 b6 3d 35 b9 6e 3b
       -0.0820324 0.0057608513 0.08887549 0.003642631
000020 54 91 4b b9 10 07 86 3d 34 32 00 bd 91 c1 0b bc
       -0.00019413728 0.06544316 -0.031297877 -0.008530037
000030 05 c0 b3 bb b7 87 e2 3b a8 6d 65 bd 4e 2d c7 3c
       -0.005485537 0.006913151 -0.05601278 0.024313595
000040 4a 6c 3b bc 27 78 77 bd 65 a9 bc 3d e1 b2 53 bd
       -0.011439392 -0.06041732 0.09211997 -0.051684264
000050 25 f9 91 3d 1d 76 85 3b 84 55 0a 3c a5 3f 71 b9
       0.07127599 0.004072918 0.00844324 -0.0002300726
000060 30 fc 0e bd 5f ba b9 bc cb 17 66 3c ff f8 a9 bd
       -0.034908473 -0.022671876 0.014043759 -0.08299445
000070 e1 59 c8 bd 1d b5 83 3d 06 12 07 bc ab a4 7c bd
       -0.09782768 0.06431029 -0.008244043 -0.061680477
000080 4c 09 38 bd 67 c9 d3 3a 25 17 b6 3c 98 b5 55 3d
       -0.04493074 0.0016158045 0.022227833 0.052175134
000090 2d c3 b3 bd 49 29 a3 38 d9 4e b2 b9 7d 0f ce bd
       -0.08777461 7.780136e-05 -0.00034009552 -0.10061548
0000a0 b9 08 bd bd 5e 1e 93 bc db 3c 53 bd 85 84 36 3b
       -0.09230179 -0.017958816 -0.05157171 0.0027849984
0000b0 1a c5 a0 bd f0 60 a4 3b 1c 78 86 3c 1b ab f2 3a
       -0.07850094 0.0050164387 0.016414694 0.0018514128
0000c0 fc ed 00 ba d2 66 60 3c fc 88 9b 3d 9f 22 38 3d
       -0.0004918275 0.013696389 0.07594487 0.044954892
0000d0 cb 17 8b bd ef f2 62 3c f6 4c fc ba ab 2b 0a bc
       -0.067916475 0.013851865 -0.001924901 -0.008433263
0000e0 61 81 52 bc 3b 14 5f 3d 78 ab 09 bc 1a 1c 18 3b
       -0.012848229 0.054462653 -0.008402698 0.002321011
0000f0 04 4e 06 3d 8c 7f b1 3a 03 a9 2d 3b bc 55 63 3c
       0.032789245 0.001354204 0.0026498444 0.013875421

fc.weight f4 [1, 64]
000000 32 ad f5 38 0d 4f 10 3d 7f a9 4d 3d 62 d7 b6 bc
       0.000117147705 0.03523164 0.050210472 -0.0223195
000010 a8 dd 63 3d e2 c0 86 bb bf ea 49 3d de 3b 03 bc
       0.05563131 -0.004112349 0.049296137 -0.008009879
000020 1a 4f 70 3c 31 e4 63 3c 48 aa b3 3c 52 f5 08 3c
       0.014667297 0.013909386 0.021931782 0.00835927
000030 33 e2 e3 3b 1b e9 24 bc 9f e7 62 3d 29 f4 0c 3c
       0.0069544553 -0.010065342 0.055396672 0.008603134
000040 7d 9d a2 3c 01 a3 93 ba 61 0d 53 3b f8 2c 86 bc
       0.019850487 -0.0011263789 0.003220402 -0.016378865
000050 d7 1c 85 bc c8 ad 51 bc a8 86 c5 3c 89 32 8e bc
       -0.016249103 -0.01279778 0.02411206 -0.017358081
000060 e6 94 01 3d 14 a4 af bc 73 de 6a 3c 3f 84 0e 3d
       0.03163614 -0.021440543 0.014335263 0.03479409
000070 68 29 a8 3d f4 58 e6 bb 3f 51 85 bc 8f 8b 98 3d
       0.082110226 -0.007029647 -0.016274093 0.07448494
000080 10 34 c6 3c a3 42 59 3d 36 91 d9 ba 14 7c b6 3c
       0.024194747 0.053042065 -0.0016599062 0.022275962
000090 9a bb d1 b9 59 b5 fa 3a 9f e3 7a 3c 69 73 5a 3c
       -0.0004000336 0.0019127532 0.015313058 0.01333318
0000a0 07 37 a4 3c 61 fb 97 bc 68 30 20 3c fa 1f 5a bc
       0.02004577 -0.018552484 0.009777166 -0.013313288
0000b0 71 63 a1 3d b8 d0 b0 3c 80 4a 19 3d 46 19 ca 3c
       0.07880295 0.0215839 0.037424564 0.024670254
0000c0 c5 17 63 3b a0 67 b2 3c 10 93 d2 3c 55 e2 f0 3d
       0.003465162 0.021777928 0.02570489 0.117619194
0000d0 ee a1 bc bb 55 c4 96 3c 7a 5a d5 37 59 a8 20 bc
       -0.005756608 0.018404165 2.543371e-05 -0.009805762
0000e0 d7 a0 b0 bb 58 97 d2 3b 64 59 de bb 21 2f bf bb
       -0.0053902674 0.006426733 -0.0067855585 -0.0058344756
0000f0 29 4b 64 3d 09 1c 60 3d c5 5c df 3c 2b 41 28 3e
       0.05573574 0.054714236 0.027265916 0.1643111
